time_series_forecasting_py/lstm_stock_model.pth (torch, 205750 bytes, 9 tensors)

lstm.weight_ih_l0 f4 [256, 1]
00000000: 558a 7c3d 032c d43d dda1 1c3e fe11 bfbd
00000010: ab1e 5abd 3c73 a93b 58ac fcbc cfe1 1b3e
00000020: 1f19 e0bc 0266 0c3e e08f a6bd 6ba3 06bd
00000030: a807 4d3c 68db 063e cd42 80bd 0bb8 0f3e
00000040: 3bd8 c03d 693a a0bd 5776 023e f602 db3d
00000050: 9cce 20bd dfd9 0e3e 5946 ca3d 6356 53bd
00000060: addc 9ebd df79 aa3d f149 9f3d f3be e73c
00000070: de1e 1d3e de45 d03d 7367 09bd 5d7b f8bb
00000080: 83d5 ad3c cdf4 5abc dc10 1dbd f1de ef3d
00000090: 0480 b93d b94b 08bb fbe3 cb3d f982 8ebd
000000a0: 90d0 6d3d 6dd4 96bc 837a b23d 9c82 d13d
000000b0: 4192 273d 6cca 45bd 39cb 5ebc 0dfd a13d
000000c0: b607 94bd 5ed7 dabd f577 2abb 6918 5fbd
000000d0: 7982 013e e598 d6bc 1496 61bd 4270 d33d
000000e0: 2272 353c 043e 93bc 6310 ccbd f901 df3d
000000f0: 5148 37ba 0cc6 043e f4e4 1c3e 7710 153e
00000100: 74e8 243e 03cc bdbc 766a a23d c2eb ca3d
00000110: 858f 3ebc 5599 f6bd 0024 c43d f2c6 193e
00000120: 2947 40bd fb8c 2cbc 735b 5d3d 06ae 0d3e
00000130: fd1b 263e 1787 303c f393 b03d 5135 9d3d
00000140: a61a 023e 1645 0e3c 8fe4 03bd db4d ecbd
00000150: b568 cabd 6829 263e fff0 083e b94d 2f3d
00000160: acf9 80bd 3c80 943d fd16 c53c df47 cb3d
00000170: f77e 1a3e fb0d 113e 969b 45bd 6ed1 afbd
00000180: ac81 9bbd cfb0 8abd 1c39 803d dc0d 32bd
00000190: fc2e b03d 2c55 99bd f8e7 28bd 0a57 043e
000001a0: 130c 993d 28d2 27be de07 94bd b27f 023e
000001b0: c9f3 5d3d ab53 df3b 1738 c43d 505b 43bd
000001c0: 8970 623d 7513 d8bb d774 e0bc 4b48 2dbd
000001d0: 1467 873d 3416 c13d dde6 1d3e 451c bc3c
000001e0: f39a 533b a4a8 093e 82e4 073d a5bf ef3c
000001f0: d720 c23d 8f0f dc3c c7e7 883d 1093 a0bd
00000200: d79a d53c 5cfc 43bd 71ad 113e 5a8a 453d
00000210: a00f 06be fe4d 8bbc 1127 f13c 04cc dc3d
00000220: cbfb bdbd 20f8 59bd 06b8 5b3c cf3b e03d
00000230: 4adc 0a3e 8355 f83c 656f 923d 412f fdbc
00000240: 018d 623b 34bf 19be c91d 963d 6a60 253e
00000250: c339 b1bd 72d0 99bc 78bf 153e 82bc e4bc
00000260: fefb b2bd 3194 14be ae42 1d3d 1d4b 153e
00000270: ac7f e33d 4a5d 1cbc df61 913d b446 ae3d
00000280: 361c 203e c7cf e73d cd33 e0bd 5fd6 0b3e
00000290: e323 10be bab5 05be 705e 933d f45e 16be
000002a0: 6898 1bbe 7adf 1d3e 34b3 00bd adb9 e6b9
000002b0: 2d3b 103e f8fd bfbd a6f9 813d 264e 263e
000002c0: b658 50bd b87b 9dbd 8a9a e43d d6f6 ff3d
000002d0: 5b60 cbbd b9fd 043d bd73 81bd 0d9f be3d
000002e0: 3016 12be 5c41 bcbd a1ae 023e 171a bdbd
000002f0: 41f8 e3bc 902f afbc 2d8b 613d 633f 123e
00000300: 2943 0e3e eb30 7a3d f237 1b3e be14 aabd
00000310: 6cc5 a93d 3976 ebbd 227c b03c 197b e83c
00000320: 6251 0d3e a1f2 223e 74e5 993c e784 163e
00000330: b090 e33c de46 acbd d582 efbd ad6a 4d3d
00000340: 69dd 74bd 6b93 24bd 93b6 763d 3cbb eb3d
00000350: b31b bc3d 3b78 113e 8740 c93d 4b62 0a3e
00000360: 5bc8 28bd f9ea 543d c2dc b83d a04e 14bd
00000370: 2015 8f3d a516 233e a5d8 123e c3af 05be
00000380: c625 2e3d c2ec ce3c d712 d1bb 0d08 30bd
00000390: 344d 803d 71c3 fb3d 5c9c a7bd 4023 aa3d
000003a0: ee6e 8c3d 61ca 7bbd c5be 0b3e 2eab ccbd
000003b0: b04d 913d 45c9 023d a2e8 3b3d 028f 1b3e
000003c0: d40a fe3d ae86 623d 7b27 8d3d dc1f a53d
000003d0: 2ca0 16bd 3846 51bb f183 6bbb aae5 85bd
000003e0: c951 84bd 53c3 d03d c2e3 ecbd 3e03 f63d
000003f0: 7e88 9fbc 05ef c8bd dde4 63bd 158d 893d
0.06165536 0.10359957 0.15296121 -0.093296036 -0.053251904 0.0051712077 -0.030843899 0.15222858
-0.027355729 0.13710788 -0.08132911 -0.03287069 0.012514032 0.13169634 -0.06262741 0.1403505
0.09416243 -0.07823641 0.12740456 0.10693924 -0.039259538 0.13950299 0.09876699 -0.051596057
-0.07756934 0.08324026 0.07777775 0.028289294 0.15343806 0.10169576 -0.033545922 -0.0075830654
0.021219974 -0.013364029 -0.038346156 0.117124446 0.0905762 -0.0020797087 0.09955593 -0.06958575
0.05806023 -0.01841184 0.087147735 0.1022999 0.040910963 -0.048288748 -0.013598257 0.07909594
-0.07228033 -0.10685609 -0.0026011441 -0.05446664 0.12647428 -0.026195953 -0.055074766 0.10324146
0.011074575 -0.017973907 -0.09964063 0.10889048 -0.0006991672 0.12966174 0.15321714 0.14557062
0.16104299 -0.02316857 0.07930462 0.099082485 -0.011630897 -0.120409645 0.09577179 0.15017298
-0.046942864 -0.010531659 0.05404229 0.13835916 0.16221614 0.010774395 0.08621969 0.07676185
0.12705478 0.008683464 -0.032200392 -0.11538287 -0.098832525 0.16226733 0.13373183 0.04279873
-0.06297621 0.07251021 0.024058813 0.09925818 0.15087496 0.1416549 -0.04824408 -0.085848674
-0.07593092 -0.06772005 0.06260893 -0.04347025 0.086027116 -0.07486948 -0.041236848 0.12923828
0.07473006 -0.16388762 -0.07228063 0.12744024 0.05418757 0.006815394 0.09581011 -0.047694504
0.055283103 -0.0065941163 -0.027399464 -0.042305272 0.066114575 0.09428063 0.15420099 0.022962699
0.0032288402 0.13443238 0.033176906 0.029266188 0.0947892 0.026862888 0.06684833 -0.0784055
0.02607481 -0.04784809 0.14226319 0.048227645 -0.13091898 -0.017004963 0.029437574 0.107811004
-0.09276541 -0.053215146 0.013410574 0.109489076 0.13560596 0.030314213 0.07150153 -0.030906321
0.0034568908 -0.15014344 0.073299 0.1615006 -0.08653595 -0.018776152 0.14623821 -0.027921919
-0.0873947 -0.14509656 0.03839367 0.14579435 0.11108336 -0.009543726 0.070987456 0.08509579
0.15635762 0.11318927 -0.1094738 0.13655995 -0.1407619 -0.13057604 0.07195747 -0.14684659
-0.15194857 0.15417281 -0.0314209 -0.00044007358 0.14085074 -0.093746126 0.06346445 0.16240749
-0.05086585 -0.07689613 0.111622885 0.12498252 -0.09930488 0.03246853 -0.063209035 0.0930768
-0.14266276 -0.09192154 0.12761928 -0.09233492 -0.027828338 -0.021384984 0.05506437 0.14281993
0.13892807 0.061081808 0.1515806 -0.083047375 0.08289608 -0.114971586 0.021543566 0.02837901
0.13800576 0.15912868 0.01878617 0.14699136 0.027778953 -0.08411954 -0.11694876 0.050150562
-0.059781466 -0.04017965 0.06023271 0.115103215 0.09184971 0.1420602 0.09826761 0.13514058
-0.0412067 0.0519819 0.09026481 -0.036207795 0.06986451 0.15926607 0.14340456 -0.13055329
0.042516492 0.02525938 -0.0063804197 -0.042976428 0.06264725 0.12293137 -0.0818412 0.08307505
0.06857096 -0.0614723 0.13646992 -0.099935874 0.07094896 0.031930227 0.045876153 0.15191272
0.12404409 0.05530422 0.06892296 0.08062717 -0.036773846 -0.0031932723 -0.0035936798 -0.065379456
-0.06460912 0.10193505 -0.11566879 0.12012337 -0.019474264 -0.09811214 -0.055638183 0.067163624

lstm.weight_hh_l0 f4 [256, 64]
00000000: 12ef 65bd e913 92bc d9d6 ca3d de16 cc3d
00000010: 3377 bc3c a77e e1bd 21a8 a0bd 66f1 e7bc
00000020: 81b5 c93d 7f8e 6bbd cf62 df3d 8b4c b83d
00000030: 2ba6 713d 1a28 cbbd 40fa 823c 542f c4bd
00000040: 2b55 803c bc38 05be 7e59 96bc 68c7 0c3e
00000050: 8763 74bd 503d 9cbd e76d bd3d 346f d53d
00000060: 84f7 b4bc 7b33 0dbe fd47 f2bd 3979 ba3d
00000070: 7c21 1d3d b1a0 2cbd 945a 0dbc 6e7f 93bd
00000080: cad9 503c 1614 82bd acb7 d7bd a050 c6bd
00000090: e809 94bc 76c6 273d f961 fabd 62bc fbbd
000000a0: 8f67 f9bd 7285 6b3d 37a9 36bd 081b e53d
000000b0: 9ab5 c63d 6877 963d 01d9 6cbd ce92 4dbd
000000c0: 05fd 6cbd da62 a03c dda4 843d 0afb 043e
000000d0: 1c59 bc3d 15c1 cd3d 3166 fcbd ee2e 043e
000000e0: a1f4 51bd 1f27 ec3c 8eae 223e 84ad e9bd
000000f0: bfbc b4bb 7a0d 7abd 4e28 bf3d cae2 e13d
00000100: 8c3f 803d 24a0 03be 72a3 1b3d 8ce1 3f39
00000110: 2da2 7bbc 7aba 9e3d f721 a8bd 9b95 b0bc
00000120: c6ad 8cbd 2cee ecbd 028e 4e3d bf8b ddbd
00000130: 1f52 7bbb 7578 093d ae7e 99bc 11f0 5bbd
00000140: f8e5 34bd ec54 6cbc 2ad0 963d bfe0 d13b
00000150: 2073 0cbe 2e86 173d 1b4d 5f3d 3237 a83c
00000160: eef8 e8bd 22e2 acbd b2e6 453d cd35 af3d
00000170: 8545 003e b967 973d a6e8 4b3d fbcc 73bc
00000180: 3a7f e93d 4cb4 52bd 6e86 9b3d cee2 aa3d
00000190: 3796 01be f340 c23d 0238 263d 001c e8bd
000001a0: a916 f239 0bdd 57bc b2c0 74bc 06ff af3d
000001b0: b0ec 523d 18dd 043d e180 21bd eacb c23c
000001c0: f7bd c53d d98b aebb d05b f23d 31b3 78bc
000001d0: 779e 363d 9831 cabb dd03 a0bd 8725 a83c
000001e0: e618 9ebd e359 01bd 402c 063e 18f5 0b3d
000001f0: 631e 3d3d 8a1d 633d d9dc b73c 45d3 a53d
00000200: 5bbf 2fbd fc11 a7bc ac61 adbd 8de0 16bd
00000210: 7d8f ba3c be7c 38bd f014 8dbc 0276 ab3c
00000220: f0fe a03d d272 743d 1988 223c f60a 8cbd
00000230: 782b 693c 5601 a2bc d948 1a3d c31b b1bd
00000240: 322e e4bd fac0 27bd 0a57 f73d 32cb 923d
00000250: df8c 9bbc 8915 493d 65ea cf3d 8232 a9bd
00000260: 64d0 043d d37d eabd 53c0 d7bd bf2a 48bd
00000270: d60d 733d 86b6 1a3d 0cc2 303c d653 0bbe
00000280: 46f5 5bbc 4890 30bd 51e4 10be e873 de3d
00000290: 5bea a93d 3a11 ecbc 6398 bdbd 6c16 583c
000002a0: e5d0 bbba a94c ee3d 8c51 d9bd 5787 9ebd
000002b0: 2a30 74bd 6e2f 94bd 8ddc 4f3d 69ef 1e3e
000002c0: 85cd eebd 054f b73d 4b85 8dbd 9645 e6bc
000002d0: 96b5 843d 0be0 f53c f629 e93b 73e8 3cbd
000002e0: 8db3 653d b77a 18bd 3437 153d fa22 febc
000002f0: ef43 87bd 1fa2 2dbd 3fd8 f8bd 1355 463d
00000300: bab3 b3bd c279 efbd 72d2 493d 9938 503d
00000310: 80fa b03d f33e 26bd 39a1 c0bd d88f ab3d
00000320: 911b 463c cf3b 26bd db94 b23d fe23 a43d
00000330: 1271 f33d 28d7 82ba 32fb 8d3c 1a57 04bd
00000340: 4b11 833d 7688 8f3d 1d44 64bd c09b 8c3d
00000350: 1541 1abd fc9c a93d d96b a2bd 2787 ab3c
00000360: 2205 adbd 8cd3 d4bd a12e 10be 0d6a b3bb
00000370: 0101 b53d 8e18 dcbd 4db5 38bd cbf3 10be
00000380: 2d6a b1bd 47c5 7bbd ed45 d73d 5966 ea3d
00000390: 6d40 dfbc 6012 33bd a73c 8a3d 8324 ad3d
000003a0: 4fc9 a5bd 3dd4 4e3c ba23 9f3d 2803 1239
000003b0: a9bd 5d3c a315 c73d 5497 d4bd 5b75 003e
000003c0: 57d4 d8bd 82ef 983d d1a7 a73d 3894 57bd
000003d0: 0f3a 7ebd a22e 16bd a2f4 f7bd ce54 283c
000003e0: 8c2f afbd 30e5 d4bd 2afb 2dbd 0595 a03c
000003f0: 1960 05be 6872 f3bd 162e 4e3c 63b1 923d
-0.0561362 -0.01783176 0.0990426 0.09965299 0.023006057 -0.11010485 -0.07844568 -0.02831335
0.09849072 -0.05750894 0.10907518 0.089989744 0.05899636 -0.09919758 0.01598847 -0.095793396
0.015665611 -0.13009924 -0.01835322 0.13747942 -0.05966523 -0.07628882 0.09249478 0.10421601
-0.02209068 -0.1378917 -0.11830137 0.09105153 0.03836201 -0.042145435 -0.008627553 -0.0720204
0.012747237 -0.06351487 -0.105330795 -0.09683347 -0.01807113 0.04096075 -0.12225718 -0.122917905
-0.12177955 0.05750031 -0.04459497 0.111867964 0.097026065 0.07346994 -0.05782414 -0.050188832
-0.057858486 0.019578386 0.06476758 0.12986389 0.09196684 0.10046593 -0.12324179 0.12908527
-0.051258687 0.028827248 0.158869 -0.114100486 -0.0055156644 -0.06104801 0.093338594 0.11029585
0.062621206 -0.12854058 0.03799767 0.00018299202 -0.01535849 0.07750411 -0.08209603 -0.021555712
-0.06869082 -0.11568865 0.050428398 -0.1081767 -0.0038348509 0.033562142 -0.018737163 -0.053695742
-0.044164628 -0.014424544 0.07363923 0.0064049657 -0.13715792 0.036993198 0.054516893 0.020534132
-0.113756046 -0.08441569 0.04831571 0.085551836 0.1252652 0.073928304 0.049782418 -0.014880414
0.1140122 -0.051441476 0.07594 0.08344041 -0.12654959 0.09485044 0.040580757 -0.113334656
0.0004617472 -0.013175259 -0.01493852 0.08593564 0.051495254 0.032437414 -0.03942955 0.023778874
0.096553735 -0.0053267297 0.11833918 -0.015179441 0.044584718 -0.006170463 -0.07813237 0.020525707
-0.07719593 -0.031579863 0.13102818 0.034169286 0.046171557 0.055448093 0.022444176 0.08096937
-0.0429071 -0.020394318 -0.08465895 -0.036835242 0.022773499 -0.04504084 -0.017221898 0.020930294
0.078611255 0.059679814 0.0099201435 -0.06838028 0.014231555 -0.019776028 0.03766713 -0.08647873
-0.111416236 -0.04095552 0.12077148 0.07167663 -0.018988071 0.049092803 0.10152129 -0.08261587
0.0324253 -0.1144978 -0.1053473 -0.04886889 0.059339367 0.037771724 0.010788452 -0.136062
-0.013425177 -0.043106347 -0.14149596 0.10861951 0.08296653 -0.028816808 -0.09257581 0.01318894
-0.0014329223 0.116357155 -0.10611257 -0.07740658 -0.059616245 -0.07235609 0.050747443 0.15521015
-0.116602935 0.08950619 -0.06910189 -0.028109353 0.06479947 0.030014059 0.007115598 -0.04612012
0.056079436 -0.037226405 0.0364296 -0.031022537 -0.06604754 -0.04239094 -0.12150621 0.048420977
-0.087745145 -0.11693145 0.049272962 0.050835226 0.08641529 -0.040587377 -0.09405751 0.083770454
0.012091533 -0.04058438 0.08719798 0.080146775 0.11886801 -0.0009982334 0.017331693 -0.03230963
0.06399783 0.0700845 -0.05572902 0.068656445 -0.037659723 0.082818955 -0.079307266 0.02093847
-0.08448245 -0.10391912 -0.14080288 -0.0054752887 0.08838082 -0.10746871 -0.045094777 -0.141555
-0.086628295 -0.061467435 0.10511384 0.114453025 -0.0272524 -0.043718696 0.0674985 0.0845423
-0.08095037 0.012623844 0.07770486 0.00013924821 0.013533988 0.09720924 -0.10380426 0.12544768
-0.105873756 0.074675575 0.08186305 -0.052631587 -0.062067088 -0.036665566 -0.12107207 0.010274125
-0.08553991 -0.103952765 -0.042475857 0.019602308 -0.1302494 -0.11887056 0.01258423 0.0716274

lstm.bias_ih_l0 f4 [256]
00000000: b144 d0bd fdc5 2fbd 5548 833d 8986 92bd
00000010: 4cda 6dbb 208e 483d 5936 e9bd 57a7 b53c
00000020: 729c c9bd 73c4 fa3d 0f5c 74bd ea97 a83c
00000030: e448 8dbd a72f d83d 2d49 b5bd 694e 66bd
00000040: dedb 5f3b b06b 87bd eba7 31bc 4089 dfbc
00000050: 0d5f dfbc b181 f43c 2566 923d 283c 7e3d
00000060: 8097 903d 2ac5 8e3d bb52 7b3d 6ad8 843b
00000070: 330a 29bd ec20 28bd 536d 06bd 5a90 453c
00000080: 63d9 9abc 9f0f 5bbd 7159 fc3d be15 ee3d
00000090: 1960 2c3e 3377 523d 04a2 dd3d c257 183e
000000a0: 33f2 e03d 0302 8ebd b89c babc c46f 43bc
000000b0: c583 803d 52ed 25bd d796 693d a322 3d3d
000000c0: 6d86 04be a846 dc3d bacf 77bc 3535 5ebd
000000d0: 1b84 cdbd fe7e 033e 78cb b93d 11ec 1ebd
000000e0: cbe0 883d 670f 59bc 488a f2bc 2c75 2cbd
000000f0: 31fd 0e3d 56ae 1e3d 1131 003e 807c 33bb
00000100: 8e37 ba3d f804 903d df1a 113e fd11 0b3c
00000110: d3dd 953d bb15 30bd 3400 56bd 1662 dabd
00000120: c2f7 c13d fc0f cabd ac2a f93c 46c7 6dbd
00000130: 05b0 11bd 10cf 46bd 71cc 9ebd 5637 113c
00000140: 3c64 23bd 6bee db3d d343 8cbd 2804 e43c
00000150: 03a8 6a3c 1677 27bd a239 72bd a56f 1bbd
00000160: 2053 e8bd e67a b63d f601 b6bd e53d 583d
00000170: f343 c03c f36f ed3d 8ddd e7bb 84fd 90bd
00000180: 9ddb fe3d 24be 643c 1ed1 eebb 26d1 2c3d
00000190: fec5 233e f1db ee3d a80e bd3c 7da9 b2bd
000001a0: 6f81 1f3d e8e0 b93c 61db 8a3d 5b2e b1bd
000001b0: 712c df3d b9f5 cd3d 92c1 ea3d 28a2 113e
000001c0: 9f8d b6bd ebc9 a53d 49a3 a53c 329e bf3d
000001d0: d88a c6bc d752 94bd 64e6 d6bd 6545 d53c
000001e0: d56a d4bd f9b7 74bd 2031 a63d 7285 92bd
000001f0: bff1 34bc 6ec8 a43d 284c 95bd 5520 bd3d
00000200: ac84 1a3d 55f8 45bd bd68 ef3d 4758 9a3c
00000210: 8f56 37bc 660f 083d c8f9 3b3d 2e42 ed3d
00000220: 1dac ecbb f461 f1bd 95b8 d43d 70d0 d03d
00000230: 4c64 0d3d 6396 26bc 078a cd3d 6f75 88bc
00000240: 9e99 32bd 0163 d83c cfdf 4abd 4f9b 04be
00000250: 80f6 79bd 5b23 8bbd 352c 10bd 2a11 793d
00000260: bad9 db3d 426a 963d c3a6 8ebd eecc ed3d
00000270: d033 70bd 0101 fdbd 46ab d2bd 4d2f c53a
00000280: 4f50 92bc e258 823d 4ecc cbbd a50c 9a39
00000290: f134 633c 2cc9 2b3d 4fae cabd 60e2 dd3b
000002a0: 0062 863d 1e6d 4ebd 632b bcbc 8147 b2bc
000002b0: 536f ef3d f834 34bd eb5e 50bd bc02 7e3d
000002c0: 551a cdbb 6a52 513d c113 f9bc bb6f 65bc
000002d0: 95c7 85bd 4c7f eebd 4f6c eebd e932 b7bd
000002e0: 764b 9bbd ae6b adbd 4856 fc3c 1661 e9bd
000002f0: 9f19 893c 5a35 5abd 62cd 09be 1734 51bc
00000300: 8dbb 05bc c731 efbd fedc b1bc 3795 613d
00000310: 4fa4 a23c 79e4 e53d 456b 0dbe ddfb 9d3d
00000320: 3dc6 34bd 6219 7f3d 70d8 2abd 5ef0 e2bc
00000330: 969d cd3c ebee 533d e9a6 373c eab6 40bd
00000340: 8cb1 8f3c 0fb1 34bc b2a6 133e 41a0 453d
00000350: f7e0 d73d e076 82bd 2191 7d3d 247f 24bc
00000360: efd6 32bd e31b 3bbd f905 cf3d d044 0ebd
00000370: dda3 013e a47a 753d e69d b8bd 0860 c83d
00000380: 4623 a6bd e520 1d3c 7b73 153d d17a 91bd
00000390: c556 f03d f3e4 173e 386e 6b3d abec 373c
000003a0: a0b1 b23d aad5 33bd c197 f0bd 36ac 84bd
000003b0: c7d3 bd3c 23f2 fe3d 129d ef3c c575 44bd
000003c0: bcca e63c 2c5e 923d a223 103e a249 053e
000003d0: ecf6 f53d 7993 013e dba9 84bd c36c d6bb
000003e0: 0bd3 b7bd cefc 0e3e 49b3 a33d e0c8 3bbd
000003f0: 322c 553d e52b 81bd 0708 2d3c 4d72 973d
-0.10169352 -0.042913426 0.064102806 -0.07154567 -0.0036293445 0.048963666 -0.11387319 0.02217452
-0.09844293 0.12244501 -0.059658106 0.02058025 -0.068986684 0.10555964 -0.08851848 -0.05622712
0.003415815 -0.06612337 -0.010843257 -0.027287126 -0.027267003 0.029846998 0.07148389 0.06206909
0.07060146 0.069712 0.061358195 0.004054119 -0.041269492 -0.04104702 -0.032819103 0.012058342
-0.018902486 -0.053481694 0.12321747 0.11625241 0.16833533 0.05138321 0.10821918 0.14877227
0.10983696 -0.069339775 -0.022779807 -0.0119285025 0.06275133 -0.04050953 0.057028618 0.04617561
-0.12941904 0.10755664 -0.015125209 -0.05424996 -0.10034963 0.12841412 0.09072012 -0.03879935
0.06683501 -0.013248301 -0.029606953 -0.04210393 0.03490943 0.03874048 0.12518717 -0.002738744
0.090926275 0.07032198 0.14170407 0.008488175 0.073177 -0.042989474 -0.052246287 -0.1066324
0.09471084 -0.0986633 0.030415855 -0.05805137 -0.035568256 -0.048537314 -0.07753838 0.008863291
-0.039890513 0.10738834 -0.06848874 0.027834013 0.014322284 -0.040885054 -0.059136994 -0.03794827
-0.1134398 0.0891016 -0.08887093 0.052793402 0.0234699 0.11593618 -0.0070759715 -0.07079604
0.12444232 0.013961349 -0.0072881123 0.042191647 0.15993497 0.11663044 0.023078278 -0.087237336
0.038941797 0.022690251 0.067801245 -0.0865142 0.108971484 0.100566335 0.11462702 0.14222014
-0.08913731 0.080951534 0.020219462 0.09356345 -0.024236128 -0.07242363 -0.10493162 0.026034066
-0.10371939 -0.059745762 0.081148386 -0.07154359 -0.011043965 0.080460414 -0.07289916 0.092346825
0.037724182 -0.04833253 0.11689899 0.018840922 -0.011190071 0.03321781 0.045892507 0.115848884
-0.007222666 -0.11786261 0.10386769 0.10196006 0.03451948 -0.010167691 0.10036092 -0.01665756
-0.043603532 0.026414396 -0.049529847 -0.1294987 -0.061026096 -0.06793853 -0.03519841 0.060807385
0.107348874 0.07344486 -0.06965401 0.11611353 -0.058643162 -0.12353707 -0.10286574 0.0015044004
-0.01786056 0.06364609 -0.099510774 0.0002938259 0.013867603 0.0419399 -0.09896528 0.006771371
0.06561661 -0.05039703 -0.022969907 -0.021762611 0.11691155 -0.043995827 -0.05087177 0.062014326
-0.0062592425 0.051103987 -0.030404927 -0.014003689 -0.06532208 -0.11645374 -0.11641752 -0.08945257
-0.075827524 -0.08467804 0.03080286 -0.11395471 0.01673585 -0.053273536 -0.13457254 -0.012768767
-0.008162391 -0.11679416 -0.021711823 0.055073943 0.019853739 0.11225218 -0.13810451 0.07714055
-0.044134367 0.062280066 -0.041710317 -0.027702507 0.025099557 0.05174152 0.011209228 -0.04704944
0.017540716 -0.011028542 0.14419058 0.048248533 0.105409555 -0.0637033 0.061905984 -0.010040078
-0.043662008 -0.04568089 0.10108561 -0.034733593 0.12660165 0.059931412 -0.09014492 0.097839415
-0.081121966 0.009590362 0.036487084 -0.071035035 0.117353 0.14833431 0.05747816 0.01122586
0.087252855 -0.043904938 -0.11747695 -0.06478159 0.023172272 0.12448528 0.029249702 -0.047963876
0.028172843 0.07146868 0.14076093 0.1301637 0.12009987 0.12653913 -0.0647771 -0.006543727
-0.089758 0.13963625 0.0799318 -0.045845866 0.0520441 -0.063072 0.010560996 0.07394848

lstm.bias_hh_l0 f4 [256]
00000000: f7e6 b33d 4e5d 13bc 479f a9bd 7372 93bc
00000010: 9b0b dabd 016d 8abd 9e79 04bd 1de3 9d3d
00000020: 2022 87bd d999 bc3d 7e87 81bd 9944 013e
00000030: 1af5 b63d e1a8 823d d736 a4bb a96d 1d3b
00000040: a3fc 50bc 8e13 c93d bc9d 87bd f4fe 09bd
00000050: e68b 38bd e5ba a6bd 2926 0a3e b86f b53d
00000060: d385 6cbd 211f aebd 5cfa edbd abdb 003e
00000070: b0c5 093e 29df b23a 5cee a93c 4c56 0dbc
00000080: c71b 6abd a10c 6f3d b57b b3bd 7983 b63c
00000090: 22aa c4ba 2f1d 68bd b2da bbbd 2731 cd3c
000000a0: 25e3 91bd 306b d33d 8a9a f6bd b95a 68bb
000000b0: 135b 083e 24ec b0bd 28ee 8f3d ce6d 183e
000000c0: f448 47bd 1494 96bd 27a9 b93d 5a01 5bbc
000000d0: 7703 963c b91e b0bd b4f7 b0bd b48f d5bd
000000e0: 3235 dc3c 8eab 6e3c 2ce5 87bc 7862 5b3d
000000f0: 2d4d 4b3c 863b 223d 9780 d7bd ab91 9d3d
00000100: befa 26bd 363a d63d 707b 133e 568f adbd
00000110: 145e 82bd 879b ca3c 073c 46bb 11d1 f63c
00000120: c27c 903d 9f0b bdbc 62a4 df3d 6b31 8c3d
00000130: e5b0 013e 1aca d63d 3366 a43c 1875 0e3b
00000140: 07d3 ccbd 1d51 80bd 159f 923d 762e 1b3e
00000150: 87c7 1dbc 0567 a6bd 8f1d dd3d 4d58 a9bd
00000160: 719a debc a48a 533d 9b49 6cbd c2de 14bd
00000170: af59 d03d 03cb df3d 9171 35bd 5eab 6a3d
00000180: eb5a 02bd fe05 74bc 97df 693d 4a7e 223c
00000190: 8369 363e f0b0 d83d de20 d8bd 8425 943d
000001a0: 5c7f 57bb 4695 5cbd 92f3 35bc 736d adbd
000001b0: 5fa4 b6bd 9b15 fd3c a065 7dbd 3d41 abbd
000001c0: ad90 04be 80e3 2a3d ae86 0a3e 1f9c 253c
000001d0: 502a 21bd 634f de3d 1045 fc3d 20e4 c33d
000001e0: f93f ff3d ae07 dd3d ffd2 333e 56e8 e4bb
000001f0: bf79 90bd 4ec0 c43d 27b0 ac3c c519 c93d
00000200: 71d5 8e3c bc15 dd3d d472 d3bd dea6 9d3a
00000210: bd7d 24bd 6cb5 023d eaad c4bb ee1f 503d
00000220: 065b 73bd bccd b6bd bf3c 013e 65c4 2bbd
00000230: 1d0f d23d 6fe5 d8bd 080a 8bbd 5a8b b9bd
00000240: 436a dbbd f70a 5dbd ac31 09b9 f390 d13c
00000250: 6116 703d 477d b5bd 7ca0 b33d 5742 fd3d
00000260: 308c eb3d 5686 c5bd ad21 e13d 7645 eabd
00000270: 131d a73d 66cf ad3c 4c8c d63d 5d63 00be
00000280: 2284 8ebd c47a 5cbd 6069 803d 8828 0d3c
00000290: 4e2d 673d 19da 8e3c 86ef 55bd a151 ad3c
000002a0: f66c c8bd 80ce 8dbd 35f9 3cbc ca03 b5bd
000002b0: c094 0abd 736f 863c 8d7d 04bd 5e64 93bd
000002c0: 4f92 a0bd d9c1 773d 7d04 5cbd 0411 253d
000002d0: e7fb dfbd e07d 3f3d a782 8b3d b36e df3d
000002e0: 3d6a 7dbd 6d43 933d 1608 a8bd b5da 913d
000002f0: c3a1 e5bd 569a b2bd d2ca 03be 9346 ec3c
00000300: ec72 57bc 43c7 96bd 8ab3 ed3c 3bd3 72bd
00000310: 39b5 2dbd f8e9 0e3d b009 d73c 5e5c 6a3d
00000320: 20a0 a53c c795 483c 1c43 31bd 0969 fd3d
00000330: f3a2 613d d227 aabd 6480 dbbc c6f4 3b3d
00000340: 743d c8bc e8b1 433d 6e83 7a3c f4a7 efbc
00000350: 7d8a 9bbd f62f f03b 55a3 1cbc 5754 edbd
00000360: 5768 51bd fc91 58ba 00fa 813d a453 0cbd
00000370: 3137 99bd f465 d2bd 7017 c23d 3fb1 733c
00000380: 0b26 083e c239 083e ee50 b73d e2bf dbbc
00000390: 32cb 893d bb77 cd3d d195 eebc 3d38 82bd
000003a0: f0c3 7abc fbc1 8cbd 7784 95bd 4ea2 00bd
000003b0: fdf6 c2bb 997a abbd 215e 663d b31c 11bd
000003c0: d493 8abd fce1 cfbd b282 043d d956 b93d
000003d0: 8cf5 f83d 018d fcbc aa71 40bd 8d62 a73c
000003e0: 3fdb 6abd 6597 64bd dd5f d1bc 3213 df3d
000003f0: 5234 5b3d 4108 8fbc 5c7a 013d 46f9 7a3d
0.087842874 -0.008994414 -0.08282333 -0.01799891 -0.10646745 -0.06759072 -0.032342546 0.07709334
-0.06598306 0.092090316 -0.06324671 0.12623824 0.08933468 0.06379867 -0.00501142 0.0024021661
-0.012755546 0.09818183 -0.06621882 -0.033690408 -0.045055293 -0.08141116 0.1349112 0.08859199
-0.057744812 -0.08502031 -0.11620018 0.12583797 0.13454318 0.0013646829 0.020743541 -0.008626532
-0.057155397 0.058361653 -0.087638296 0.022279488 -0.0015004317 -0.056668457 -0.09172572 0.025047852
-0.071234025 0.10323179 -0.12041195 -0.0035454466 0.13315992 -0.0863879 0.070278466 0.14885637
-0.048653558 -0.073524624 0.090654664 -0.013367021 0.018312199 -0.0859961 -0.086409956 -0.104278
0.026880834 0.014567269 -0.01658877 0.053560704 0.012408537 0.039607547 -0.105225734 0.076937996
-0.04076647 0.104603216 0.14402556 -0.08474605 -0.063656 0.024732364 -0.0030248181 0.030128988
0.07055046 -0.02307683 0.109200254 0.06845363 0.12665136 0.104877666 0.020068264 0.0021737274
-0.10001188 -0.06265471 0.07159249 0.15154442 -0.009630091 -0.08125118 0.107966535 -0.08268795
-0.027173253 0.05164589 -0.057687383 -0.03634525 0.10173356 0.10927393 -0.04429776 0.057292335
-0.031824987 -0.014894007 0.057097998 0.009917805 0.17813687 0.10580623 -0.10553144 0.07233718
-0.0032882309 -0.053853296 -0.011105435 -0.084681414 -0.0891807 0.030894091 -0.061864495 -0.083620526
-0.12945814 0.041720867 0.13527939 0.010108023 -0.039346993 0.108549856 0.1231786 0.09564996
0.12463374 0.107924804 0.17560957 -0.0069857044 -0.07054471 0.09606992 0.02108009 0.09819368
0.017435761 0.10795161 -0.10324636 0.001202788 -0.040158976 0.0319113 -0.0060021775 0.0508117
-0.05941298 -0.089259595 0.12620829 -0.041935343 0.10256789 -0.10590636 -0.06789023 -0.09059782
-0.10713627 -0.053965535 -0.00013083842 0.025581812 0.058615092 -0.088617854 0.08770844 0.12366169
0.11501348 -0.09644763 0.10992751 -0.1143903 0.08159842 0.02121706 0.10475978 -0.12537904
-0.06958796 -0.053828016 0.06270099 0.00861562 0.05643969 0.017437981 -0.05223038 0.021157088
-0.09786408 -0.069241524 -0.011534025 -0.08838613 -0.033833265 0.016410565 -0.032346297 -0.07196878
-0.07840406 0.060487602 -0.053715218 0.04029943 -0.109367184 0.046750903 0.06812029 0.10909786
-0.061868895 0.07190595 -0.08204667 0.07121793 -0.11212494 -0.087208435 -0.12870339 0.028842246
-0.013149958 -0.07362225 0.029016275 -0.059283476 -0.042409156 0.0348911 0.026249737 0.057216994
0.020217955 0.012242741 -0.04327689 0.123735495 0.05508704 -0.08308376 -0.02679462 0.04588773
-0.024443366 0.047777086 0.015290124 -0.029254891 -0.07594774 0.007329936 -0.009560426 -0.11588352
-0.051124897 -0.00082614995 0.06346512 -0.034259453 -0.0748123 -0.10273352 0.094771266 0.014873802
0.13295762 0.13303283 0.08950983 -0.026824895 0.067282096 0.100326024 -0.029124172 -0.06358383
-0.015305504 -0.06872936 -0.07300656 -0.031404786 -0.0059498535 -0.08372993 0.056242112 -0.03542776
-0.06766477 -0.10150525 0.032351203 0.09049768 0.12156209 -0.030828955 -0.0469834 0.020432735
-0.057337996 -0.055808444 -0.025558406 0.10892333 0.053516693 -0.01745999 0.03161083 0.061272882

lstm.weight_ih_l1 f4 [256, 64]
00000000: 4a81 9abd 9053 0e3c 6b8d d8bd efaa 953d
00000010: 2801 a43d f0af 9e3d 3c8a 423c 5ecb 4cbc
00000020: 7e35 ae3c d7d6 c73d 0b48 99bb 42be b53d
00000030: 7928 843d ec51 783d 36b7 893c babd 40bb
00000040: d539 2abd 5089 5b3c 166e 93bd dea8 0dbe
00000050: d447 b7bd 2e0f c4bd a32f 3ebd 0952 f3bc
00000060: 2a7d cbbc 80f9 203d 5956 b4bd 4e33 51bd
00000070: 75a5 ef3c a6f8 e63b ae92 bbbc d5ab be3d
00000080: eec6 74bd 1c41 89bd 5c85 8bbd 0d23 04be
00000090: 878f 243d 2b4b 1b3e 0fe5 7fbb 9737 b03d
000000a0: cf7c fbbc ffa6 943d 4263 c53d a929 a83d
000000b0: 7383 12bd c33e 143e b67c ff3d b112 d4bd
000000c0: cf1a fe3d b416 4b3c b7a6 e03d 21c5 bc3d
000000d0: 73fa ee3d 0e6c a13d cdc1 eabb da46 0ebd
000000e0: 2389 703d 40c7 a23d ab19 293d 79e6 1ebc
000000f0: e1fd c2bd 0906 d53c 93ca 003e 0c85 0ebd
00000100: c3f6 b43c 7ce6 cebd da03 acbd c427 313c
00000110: e733 253b 974b 80bd 03e2 be3d 6d31 13bc
00000120: 5c77 173d 9f0f 59bd 8b39 6d3c a3f3 603d
00000130: 0f71 b43d b70f e73d edc8 e03c d11a c0bd
00000140: 6a2f 323b 2539 23bc 4bd5 9bbd 667b 0a3e
00000150: fb9a 16be fa0d 6b3d 049a c2bb dc66 37bd
00000160: 22b0 d93d cadc 303d e524 aabd dcf0 95bd
00000170: 102e b33c 2d5e 343d 107b e33d 7f48 6d3c
00000180: fd18 fe3d 3e5f 003d b7a2 10bd ab89 58bd
00000190: 7cf0 52bc 8bfe 15be 085b a3bd fca5 e2bc
000001a0: 842a 98bb 2a03 26bd f24c 08be 634a e2bd
000001b0: 945d c9bd 11ea ffbd 71fa d03d 8ac5 a13d
000001c0: f2af af3d 0ee2 57bd 4a06 fd3b 7c91 68bd
000001d0: e5ee b33c e01e 673d c57d b13d 9da0 2fbd
000001e0: 477a bf3c 8ccc 12be 889e a4bc 822e 69bb
000001f0: da61 d5bd da1d f7bc f4ec 7dbd f442 58bd
00000200: d109 2d3d c77c c13d f287 90bd e83a d33d
00000210: 0dd5 5b3d 454c ec3d d6ab e0bd a457 013d
00000220: 35d8 d0bc 07e3 a8bd b410 d9bd cf79 0b3b
00000230: 18b0 4d3c 1b9a a53c e77f bfbd 4081 613d
00000240: 6b70 92bd 35da d23d 598c c23d 4ca1 5e3c
00000250: 2f44 8e3d 056e b03d 9401 5cbd b264 05be
00000260: bd02 a7bc 2339 63bd b614 f4bd 5509 cbbc
00000270: 3550 3cbc ced2 cfbd 9287 96bd 7170 61bd
00000280: 1a45 99bd a442 70bd 109c 97bc 9954 133c
00000290: 323a cbbd d72d c2bd bd05 a23d 3e47 70bd
000002a0: 8265 48bd 586b 9bbd 2726 b63d 66e2 923c
000002b0: 912b c2bd 140e ddbd 3e87 833c 3328 eabd
000002c0: cfee 91bd 041d 9e3d 2356 3c3d 265b f83c
000002d0: 5e17 febc 1994 a73d 61fd d9bb 1e1a 593d
000002e0: bb69 2a3b d809 ec3d b4f5 1dbd 8b4e 123d
000002f0: 39c2 893d 0314 093e 9399 3c3d e9d2 47bd
00000300: 59ab 63bd c29f 41bd cf03 d93d 6277 b43d
00000310: df9b c1bd da79 ccbd 5bd4 b6bd 00a6 783d
00000320: 8a19 15bd 7289 673d 94ed 95bd 13c8 f43d
00000330: df63 ff3d 3942 683c 63ec 913d e77c d63d
00000340: d42c 313d a2a2 3abd 8d8c e33d ba5d 6fbc
00000350: 270a 23bd ba77 ecbd 93a6 fd3d 2ff6 51bd
00000360: bcbd ba3c f08c 06bd 3b61 003e 18b7 1b3c
00000370: 7ba4 de3d 83be 8cbd 0785 ec3b 78e3 6fbb
00000380: 3439 bdbd 87c9 acbd e82a ba3c 8419 12bd
00000390: b524 553a 11ca 00be a349 473d 89f7 873c
000003a0: 91ff cbbd 3dc3 1e3e 38ab 093d 2f15 c2bd
000003b0: e7b6 01bd 52c5 ad3d 3c54 c6bd 10bf 7f3d
000003c0: 9697 313d 5476 0f3c b769 9cbd dadf 483c
000003d0: e410 b33d 6c58 06be edcb 6a3d 20e4 543d
000003e0: ebde aabc 989d 94bd c32d 9abc f95b 10be
000003f0: e7bf ec3a d752 103d 13e2 10bd e8e4 1ebc
-0.07544191 0.008686915 -0.10573848 0.073079936 0.08008033 0.07748401 0.011873778 -0.012499658
0.021265741 0.09757774 -0.0046777776 0.088741794 0.06453032 0.060625 0.016810995 -0.002940996
-0.04155906 0.013399437 -0.071987316 -0.13833949 -0.08949247 -0.09573208 -0.04643215 -0.029702203
-0.024839956 0.03930044 -0.08805532 -0.05107432 0.0292537 0.007048684 -0.02289709 0.09310118
-0.059760027 -0.06701872 -0.06812546 -0.12903996 0.04017594 0.15165393 -0.0039046442 0.08604353
-0.030699162 0.072584145 0.096380726 0.08211071 -0.03576989 0.14477067 0.124749586 -0.103551276
0.12407457 0.01239555 0.10969298 0.09217287 0.11668863 0.07881938 -0.007164216 -0.034735538
0.058724534 0.0794816 0.041284245 -0.009698504 -0.0952108 0.026003854 0.12577276 -0.034794852
0.022090321 -0.10102555 -0.08399172 0.0108127035 0.0025207938 -0.062644176 0.09320452 -0.008983952
0.036979064 -0.052993413 0.014479051 0.05491985 0.08810627 0.11282294 0.027439559 -0.09380115
0.0027188906 -0.009962355 -0.07609042 0.13523635 -0.14707558 0.057386376 -0.0059387702 -0.04477583
0.10629298 0.04317931 -0.08307818 -0.07321331 0.02187255 0.044035126 0.11107457 0.014482616
0.1240711 0.03134083 -0.035311427 -0.052865665 -0.012874719 -0.14647882 -0.07976347 -0.027667038
-0.00464374 -0.04053036 -0.13310602 -0.110493444 -0.09832302 -0.124958165 0.10204018 0.07899006
0.08578481 -0.052705817 0.007721697 -0.05677937 0.0219645 0.05642593 0.08666567 -0.042877782
0.023373736 -0.14335841 -0.020095125 -0.00355807 -0.10419054 -0.030165602 -0.061993554 -0.052798226
0.04224569 0.094476275 -0.070571795 0.1031397 0.053669978 0.11537985 -0.10970275 0.03157772
-0.02549372 -0.08246427 -0.10598889 0.002128232 0.012554191 0.020215085 -0.09350567 0.055054903
-0.07150348 0.10295526 0.094994254 0.013588261 0.06946599 0.086147346 -0.053712443 -0.13026693
-0.020387048 -0.05547441 -0.11918013 -0.024784723 -0.011493732 -0.1014763 -0.07350077 -0.055038873
-0.07483883 -0.058657303 -0.018507034 0.008992338 -0.09923209 -0.094813995 0.07911251 -0.05866169
-0.04892493 -0.075888336 0.08893996 0.01793022 -0.09480966 -0.10793701 0.0160557 -0.11433449
-0.07125627 0.07720378 0.045980584 0.0303169 -0.031017002 0.08182544 -0.0066525196 0.053003423
0.0026002962 0.11525315 -0.0385644 0.035719436 0.06726498 0.1338654 0.046044897 -0.048785124
-0.05558333 -0.047271498 0.105964296 0.08811833 -0.09453558 -0.09984179 -0.08927222 0.060705185
-0.03640131 0.056527562 -0.07320705 0.11952224 0.12470221 0.014175945 0.07125165 0.10473042
0.043255642 -0.045565255 0.11110792 -0.0146097485 -0.039804604 -0.115462735 0.12385287 -0.05126017
0.02279555 -0.032849252 0.1253709 0.009504102 0.10871216 -0.06872275 0.0072180065 -0.0036604088
-0.09239426 -0.08436876 0.022725537 -0.035668865 0.0008130775 -0.12577082 0.04865421 0.016597526
-0.09960855 0.15504165 0.033610553 -0.09476697 -0.03166857 0.084849015 -0.09684035 0.06243807
0.043357454 0.008756239 -0.07637351 0.012260402 0.08743456 -0.13119668 0.057323385 0.05197537
-0.020858249 -0.07256621 -0.018820649 -0.14097585 0.0018062562 0.035235252 -0.03537185 -0.00969813

lstm.weight_hh_l1 f4 [256, 64]
00000000: 9fd4 94bc 0460 98bd bd34 d33d d018 3fbd
00000010: fc8c 693d 7619 0f3d e1c0 84bd 0394 8f3d
00000020: 1260 cf3d 3083 3abc 5753 f43d 22e2 2b3d
00000030: 9146 dbbd b1a0 c1bc 4810 e1bd 55ca 9ebc
00000040: 48dc a63c e7d4 833d 8231 f23d 1221 a03d
00000050: a7c9 65bd 187c babd 433b cd3d 9d29 8c3c
00000060: 1880 46bb aa53 ba3d 69e7 663d d5ea c2bc
00000070: 4956 90bd aeb9 cc3b bca6 8d3d 2de0 323d
00000080: 035e 8fbc 9b10 8c39 8ef1 873d 5f88 113e
00000090: 44dc 19bc 8608 bebb 17de 6dbd 7ee9 4e3d
000000a0: 3bb4 21bd c3e9 bf3d 7882 c1bd 44e9 b9bd
000000b0: bffb 94bc 6cf8 973d 878a cabd 4f36 59bd
000000c0: 38be 2c3d 2fee 5a3c f922 debd 8deb 9cbd
000000d0: d6f7 653b 3c78 3bbc 16c7 8fbd e5b7 64bd
000000e0: 78ed cd3d 31cf cfbd 1773 c0bd 00d3 b9bd
000000f0: a508 e9bc c72c 933d e298 4c3d 7507 55bd
00000100: 5f68 963d 5b0d d7bd 33dc 083d 1a0a f8bd
00000110: b409 df3c c8e6 c23d 7990 e5bc 0087 673d
00000120: 1a19 e63d fe13 d6bd 86d9 6abd 8587 3bbd
00000130: 76d0 a2bd 5872 883d 5d00 a7bd a737 e1bc
00000140: 0cf2 8e3d c4a8 91bd 6b0f fabd 1c19 a4bd
00000150: 50e6 163d 69e3 09bd 4601 dbbd d703 6c3c
00000160: f36e c43d 0d1c df3c 2b26 d63d 6edc d5ba
00000170: 9364 5d3d a498 fc3d 0dc0 babd 4a68 6d3d
00000180: 79f5 8dbd 4784 06be 6409 91bd eac0 aebd
00000190: 0890 303d b8f8 933d a021 e33d f738 a9bd
000001a0: ccc0 01be a7d5 c73d 35d5 d23d 07fa 653d
000001b0: f8db bb3d 0eeb d83a f7b5 093d a599 a03d
000001c0: 6b94 c8bd 0dd7 9cbc 417c d8bd d007 00be
000001d0: 9f30 853d d123 a8bc 2714 3ebd 118f 00be
000001e0: c109 ec3c 0622 c83d 5aaa 1abd 64ba f8bc
000001f0: f2f2 fdbb cfbb 82bc 92a9 a73d 4121 aa3d
00000200: aa65 3a3c f51e 033e 600e e93d a38f dcbd
00000210: ae6c dabb 8d31 e3bc d808 b7bd d750 7ebd
00000220: 5ad6 723d 3915 db3d fb44 47bd 71f4 64bd
00000230: 55da 8dbc 7dd1 babd bf1e 6cbd beef 8c3d
00000240: da06 55bd 231b c63d 95f9 8f3d aceb 60bc
00000250: 58a6 ea3d 0b53 02bd ffff 41bc abb4 9a3d
00000260: 91be eebc bb61 6b3d 70df 663b b871 9cbd
00000270: 5d14 c3bc 36c6 bc3d d785 b33d b5c3 b8bd
00000280: 233e a4bd 522f d9bc 70d7 b73d 23af f53d
00000290: 2bda b9bd 1892 9e3d 7a54 cfbd a6c9 59bd
000002a0: 57c8 b53d 68ec a93d 82a5 a4bd 3e07 8dbc
000002b0: 8681 a3bd 7166 c5bd 0501 a53d 4812 683d
000002c0: 5a2a 083c 4f28 cd3d 3e4d b5bd a4e9 c13d
000002d0: af06 44bd 80f9 adbd 6921 1f3d 77c0 ae3d
000002e0: fc78 b63d f208 b4bd 67f3 bc3d 449a 91bd
000002f0: 718c 01bd 5ad3 ae3d f6ff d73c 2456 c03d
00000300: 6b55 8abd 8685 6cbc cd33 c43d a745 c0bd
00000310: 30f1 b0bd da84 7a3d e475 b83d d5ca 03be
00000320: 8b77 9bbd 04ed 8fbd 479f c13c 48f3 2e3d
00000330: 2853 093e 16c7 fbbc 2fe4 553d 2188 423c
00000340: 80e3 13bd 2b43 703d 6d07 3bbc dc2b 623b
00000350: 5c98 943d 510c 8dbd a46f 443c 9204 8dbb
00000360: 8425 96bd c1f6 10bd fd56 923c e657 c3bd
00000370: bf60 b3bd deae a0bd 3e44 b3bd c740 7c3b
00000380: 0da6 c3bd c1df bbbd 97c2 03bd 6c01 c6bd
00000390: 325c 35bc d422 033e 2f1e a63d 2cad 55bc
000003a0: 3661 85bc c083 babd b52e bdbc a78b 9c3c
000003b0: 2ef6 003e ab97 0f3d 2f2b 82bd ccc8 c6bd
000003c0: 0da1 f53c f0c6 3c3d ea9b 603d c6d8 afbc
000003d0: a10e 0c3c 1b89 bd3d c307 78bd 9eb2 41bd
000003e0: 50e3 88bd 5c1a d7bc 2a51 e03d 907f aebd
000003f0: 7a86 0c3e 27b4 ca3b ec96 b4bd 652e 4cbd
-0.018167792 -0.074401885 0.103127934 -0.046654522 0.05701922 0.03493639 -0.06482101 0.07010653
0.10125746 -0.011383817 0.11929958 0.041963704 -0.10706819 -0.023636194 -0.109894335 -0.019383589
0.02036871 0.06437092 0.11825849 0.07818808 -0.056100514 -0.091057 0.10021069 0.017109687
-0.0030288752 0.09097989 0.056373034 -0.023793617 -0.070477076 0.0062477207 0.06916568 0.043670822
-0.017500883 0.00026715253 0.0663787 0.14212178 -0.009390894 -0.005799356 -0.05807313 0.050515644
-0.03947852 0.093707584 -0.09448713 -0.09077695 -0.018186448 0.074204296 -0.09889703 -0.05303031
0.042173594 0.013362451 -0.10846514 -0.07662115 0.0035090349 -0.01144224 -0.070203945 -0.055839438
0.10055059 -0.101469405 -0.09396952 -0.09073448 -0.028446505 0.07186275 0.049950488 -0.052009065
0.07344126 -0.10500594 0.033413123 -0.12111302 0.027226306 0.09516674 -0.028022991 0.05652523
0.112352565 -0.10453032 -0.057336353 -0.04578354 -0.07949917 0.06662434 -0.08154366 -0.027492357
0.069797605 -0.071122676 -0.12209972 -0.08012602 0.036840737 -0.03366414 -0.10693602 0.014405212
0.095914744 0.027235055 0.10456499 -0.0016316304 0.054050993 0.123338014 -0.09118662 0.057960786
-0.06931586 -0.13136397 -0.07081869 -0.08532889 0.04310611 0.07225174 0.11090398 -0.08262818
-0.12671202 0.09757548 0.10294572 0.056146648 0.09172815 0.0016549544 0.0336208 0.07841805
-0.097939335 -0.019145513 -0.105705746 -0.1250298 0.06503414 -0.020524891 -0.046405938 -0.12554576
0.028813245 0.097721145 -0.037760116 -0.030362315 -0.0077499086 -0.015958695 0.0818664 0.08307124
0.011376778 0.12804778 0.11379695 -0.10769584 -0.0066657877 -0.027733589 -0.08937234 -0.062088814
0.059286453 0.10697407 -0.04864977 -0.05589718 -0.017316023 -0.09121988 -0.05764651 0.06881665
-0.052008487 0.09673145 0.07030026 -0.013728064 0.11457509 -0.031817477 -0.011840819 0.07553991
-0.029143604 0.05746625 0.0035228394 -0.07638878 -0.02381342 0.09217493 0.08765762 -0.09021703
-0.08019664 -0.026511822 0.08976638 0.11996295 -0.09074815 0.07742709 -0.101235345 -0.053170823
0.088761024 0.08297044 -0.080393806 -0.017215367 -0.07983689 -0.0963868 0.08056835 0.05665806
0.008310879 0.10017454 -0.088526234 0.094683915 -0.047857936 -0.08494854 0.03885022 0.085328035
0.08909795 -0.08790769 0.09226113 -0.07109502 -0.031628076 0.08536406 0.026367169 0.0939143
-0.067545734 -0.014436131 0.09580193 -0.09388285 -0.08639753 0.061161853 0.09006861 -0.12870343
-0.075911604 -0.07027629 0.02363552 0.04271248 0.13410628 -0.03073458 0.052219566 0.011873276
-0.036105633 0.058657806 -0.011415345 0.0034511006 0.07255623 -0.06887115 0.011989508 -0.0043035233
-0.07331374 -0.035391573 0.017863745 -0.0953825 -0.08758687 -0.07845853 -0.087532505 0.0038490759
-0.09553156 -0.09173537 -0.032167997 -0.0966824 -0.011069344 0.12806255 0.08111226 -0.013041776
-0.016281705 -0.091071606 -0.02309356 0.01910956 0.1259391 0.03505675 -0.06355893 -0.09706268
0.029984022 0.04608816 0.05483619 -0.02146567 0.00854841 0.092546664 -0.060554277 -0.047289483
-0.066839814 -0.026257686 0.10952981 -0.08520424 0.13723174 0.0061860266 -0.088178486 -0.049848933

lstm.bias_ih_l1 f4 [256]
00000000: d2f4 e5bc 3299 22bd ccc9 ad3d 61b7 a53d
00000010: 1f7d d7bd c34f a7bd 3ffc cc3c ef84 c5bd
00000020: 2957 ac3d e988 de3d f0ea 04bc 3f32 a63b
00000030: 71d1 563d 482e 4b3d d107 a93d b729 3f3d
00000040: 0c18 9f3d 0184 88bd 7552 043b da9a 9d3c
00000050: c563 2abd 1dac b9bd 8816 78bc 7c40 63bc
00000060: 8a17 0a3e 6ebe d23c 0567 87bd 830a ca3d
00000070: a136 ccbd 3c27 513d 2c85 d1bd eb56 403c
00000080: f7f6 71bc 35b0 a6bd c0a3 a4bd 0dbe a8bd
00000090: a6ab d63d 15c5 ec3c b89d 063e 7ad6 363d
000000a0: beb1 7d3d 9dba a33c 3aaf 1a3d 2cb1 cdbb
000000b0: 4786 7d3c f579 8bbc 6a96 b7bd de45 bbbd
000000c0: 74df 94bd d01c e13c c8d4 bf3d 681f 843b
000000d0: 1390 d13d f8e2 653d 13ba eb3d 4db8 9c3c
000000e0: bbe7 5f3d 7263 383c e10a 9bbd db63 68bd
000000f0: c63c 0bbe a70b b4bd 8ea0 48bd 8059 eebd
00000100: d7af febd dba9 77bd 8535 0ebd a828 5e3d
00000110: cd32 903c 6712 a6bc 49ac 04be 02a0 04be
00000120: 236b cb3d 3bd9 583d 6e0e 023c 30e3 853d
00000130: 82cf ed3d fe54 073e dcce 8d3c 1d20 843d
00000140: 3862 c73d d05e 98bc 9d3b 103d f458 e1bd
00000150: 8e1f 413d 4ad9 49bd 80f6 013d 5b53 8fbd
00000160: 1cb9 303d 6115 36bd 06f9 d5bc 83c8 e03c
00000170: 6149 d03d 2f7f bdbd 18b5 c13d 207d f53c
00000180: 009d dfbd 630e e63d 1361 c4bd 4817 ca3d
00000190: bb7b 133d adbb b8bd 8ca7 aa3d 3bc2 56bd
000001a0: d229 00bd 32db b23c c08a 083e 4043 72bd
000001b0: 8955 33bd 8346 aebd faa0 16bd b2e5 a4bd
000001c0: 6c2e 5d3d 86f1 873c 1c9d c93d d5ff 863d
000001d0: 77f8 8bbc 5d18 6fbd 2fed 7d3c 31aa 49b9
000001e0: c6cc c3bd 6db4 adbd 12cb c9bb ded7 91bd
000001f0: 0570 023d 73e9 443d 3be5 67bd a5a4 eabd
00000200: 612d cf3d 8e2b dbbd 941b a1bd 439c fbbd
00000210: bca3 823d ee88 8e3d 1d0d e3bd a69c 1fbd
00000220: a65a d83d 0235 f4bd be53 8b3d 3973 0abe
00000230: 5f09 423d 39a5 ad3d 4918 d5bc bab5 203d
00000240: 108a 2bbd 74a3 61bd 822e 00be 1de3 823d
00000250: 2ee1 54bd 41ed 04bc c802 b6bc 4e61 05be
00000260: 69c1 673b d9fd 91bc 5df9 ae3b 7fe8 4e3d
00000270: e904 09be 4960 49bd 6c39 86bd c5aa 8b3d
00000280: fba8 ecbd a56e 093d ffc5 80bd 5216 39bd
00000290: 713e 95bd 5344 943c 1924 0d3b 5080 77bd
000002a0: 99f3 88bd efe2 92bd b242 e53a 9ec5 a3bd
000002b0: ff0b ccbd e20d 583c 85aa fcbd 3f6b 74bb
000002c0: 023f 69bd 6014 03be 0d4b 29bc e9fe 8c3c
000002d0: 561a 98bd 4872 843d 4083 9dbd 7ad4 e5bd
000002e0: 045d a63d 0caf 9fbd c5d0 343c 23ab b7bd
000002f0: de07 d5bc 0e6e bc3c cd28 e6bd b2ad 6c3d
00000300: 613e b03d 05d3 223d d5aa de3d b9c7 cbbd
00000310: c6b1 4e3d 2002 ccbd b60a 1b3d ee58 91bd
00000320: dbbb 4c3d 3178 d73c b5a0 533c e81e 49bd
00000330: 61a3 bbbd 8f4c 9dbd d24e a8bd 9f76 c4bd
00000340: 54cc 013e 974c 2fbc 1a0f babd 201c 173d
00000350: c1dc 94bd 270d 6bbb 030b 003d 63ae bfbc
00000360: f869 993d 5879 96bd 16a2 d0bd fb36 073d
00000370: fa2b d4bd bc5d ec3a b06a fbbd 9de6 903d
00000380: 280b 853d 9afd 70bd 7cb8 62bc f74d c7bd
00000390: 4b74 af3d 72e2 783d 732e a63d f246 973d
000003a0: b6eb 7dbd 3141 54bd e8ad 9c3d 8b5a 6f3c
000003b0: 2232 ba3d beae 83bd b03d 813d 43db 4b3d
000003c0: eb9d 003e d8d6 0cbc c25c bc3d 0bcd a43b
000003d0: 546a a0bc 8900 083d aefa 813b b2ec 01bc
000003e0: 2f98 0d3d 39fe 493d 0ce9 333c bc95 6f3d
000003f0: 82e5 08bd c615 773d b2b7 e93d 29f2 073d
-0.028070841 -0.03969688 0.08485755 0.080916174 -0.10521912 -0.0816951 0.025022624 -0.09644496
0.08415062 0.10865957 -0.008112654 0.005071908 0.052445833 0.049604684 0.08253444 0.04667064
0.077682585 -0.06665803 0.002019075 0.019238878 -0.041599054 -0.09066031 -0.015142091 -0.013870355
0.13485542 0.02572557 -0.06611446 0.09865286 -0.09971357 0.051062807 -0.10230479 0.011739473
-0.014768354 -0.081390776 -0.08039045 -0.08239374 0.10481958 0.02890257 0.13146102 0.044638135
0.061937086 0.019986445 0.037764765 -0.006277224 0.015473909 -0.017025927 -0.08964236 -0.091441855
-0.07269183 0.02747956 0.09366757 0.004032064 0.10232558 0.056124657 0.115101 0.01913085
0.054664355 0.011254178 -0.07570434 -0.056735855 -0.13597402 -0.08791285 -0.048981242 -0.116381645
-0.124358825 -0.06046472 -0.03471901 0.05423799 0.017602349 -0.020272447 -0.12956347 -0.12951663
0.09932544 0.052941542 0.007938011 0.06537473 0.116118446 0.13216016 0.017310552 0.064514376
0.097355306 -0.018599898 0.0352131 -0.110032946 0.047149234 -0.04927949 0.03172922 -0.06998321
0.043145284 -0.044453982 -0.02611972 0.027439361 0.10170246 -0.09252774 0.09458369 0.02996689
-0.10918617 0.11233213 -0.09588828 0.09867722 0.03600667 -0.09020171 0.08332738 -0.052431326
-0.031289883 0.021833036 0.13334179 -0.059146166 -0.043782745 -0.08509543 -0.036774613 -0.080516234
0.05399935 0.01659466 0.09844419 0.06591765 -0.01708625 -0.058372844 0.0154984435 -0.00019232255
-0.09560542 -0.08481679 -0.006158241 -0.071212515 0.03184511 0.048074197 -0.056615096 -0.11457185
0.10116077 -0.10701667 -0.07866588 -0.12285664 0.06378886 0.06959711 -0.110864855 -0.03896775
0.10564165 -0.11924173 0.06803082 -0.13520516 0.04737222 0.08478779 -0.026012557 0.039235808
-0.041879714 -0.05508752 -0.12517741 0.06390975 -0.05197256 -0.008113206 -0.022218123 -0.130254
0.0035363084 -0.01782124 0.005339785 0.050514694 -0.1338078 -0.04916409 -0.06553921 0.06819681
-0.11555668 0.033552784 -0.06287765 -0.045187302 -0.072873004 0.018098986 0.0021536408 -0.060425103
-0.066870876 -0.071721904 0.001749119 -0.07996677 -0.099632256 0.013186904 -0.123372115 -0.003729537
-0.056944855 -0.12800741 -0.010332835 0.017211394 -0.07426898 0.0646711 -0.076910496 -0.11222167
0.0812321 -0.077970594 0.011036103 -0.089681886 -0.026004728 0.023001697 -0.11238251 0.057782836
0.08605648 0.039752025 0.108724274 -0.099502034 0.050462507 -0.09961343 0.03785201 -0.0709704
0.04998384 0.026302429 0.0129167335 -0.04910174 -0.091620214 -0.07680618 -0.08218159 -0.09592938
0.12675601 -0.010699413 -0.09084912 0.036892056 -0.07268668 -0.0035865994 0.0312605 -0.023398584
0.07490915 -0.07347363 -0.101871654 0.033011418 -0.1035995 0.0018033306 -0.122762084 0.07075236
0.064962685 -0.058835603 -0.01383793 -0.097316675 0.08567103 0.06076283 0.08114328 0.073865786
-0.06199237 -0.051819984 0.076503575 0.0146089895 0.09091593 -0.06429814 0.06310594 0.04976965
0.12560241 -0.008596145 0.0919738 0.005029326 -0.019581951 0.033203635 0.003966651 -0.007929968
0.03456896 0.04931471 0.010980856 0.058492407 -0.033422 0.0603235 0.1141199 0.033189926
