time_series_forecasting_py/lstm_stock_model.pth (torch, 205750 bytes, 9 tensors)

lstm.weight_ih_l0 f4 [256, 1]
00000000: 887d b7ba d2ce 153e 99e2 c6bc e90d 363c
00000010: a130 ef3c cacc c3bc c5d2 503d 0bda eb3d
00000020: 5f49 bbbb f13e c13d 8b5b a13d 5e81 4f3d
00000030: 2557 863d 0207 3d3d 0467 2f3d 5f93 703d
00000040: 9e71 dc3b 833f 82bd 4d08 9d3d 5618 48bd
00000050: a98d 8a3d 974c 39be cdf4 f13d 7d06 1dbd
00000060: 22ce 9abd 8890 4f3d 9770 41bd 06b8 d43d
00000070: ebb2 033d d379 423c c812 7ebd d6aa 4fbd
00000080: 3467 50bd b8a5 ec3d ce0c 08bd 8baf 833c
00000090: c82d 75bd 7626 1f3e c00e 06be db0d 993d
000000a0: 057a 9cbd be8e 143e 541b 86bb fe4f 483d
000000b0: d2b4 a9bd 9456 29bd 18f6 90bc 373c 113e
000000c0: 58e2 a63d 0ee9 c43d e5ac 9fbb 2bfe 68bd
000000d0: 1729 92bd 8f1f db3d 0b0d 4d3d 6e6a 823d
000000e0: 0fe3 813d 2840 073e e7c1 f4bd d8da 92bd
000000f0: 3677 a6bd efbc 4ebd 15ec 223e 905d ff3d
00000100: fd3e 8d3d bd68 1d3e 5d1f 453b bf96 0c3e
00000110: 079f 93bd 8717 a5bd 7d56 163e 38cb e2bc
00000120: a0c3 8fbd c585 da3c 271d a33d 04c9 073c
00000130: 3d28 9cbd 76c7 5dbd cad8 5f3c 5999 9e3d
00000140: 1332 40bd eab9 273e 9bc2 a23d f4d3 35bd
00000150: 53bb 0d3e d619 55bd 91a8 e2bc f5ce 79bd
00000160: fa29 98bd 1741 d43d 9eeb c73d 9788 8d3d
00000170: 0e23 673b 4cdc 37bd 2fb6 a63d a626 0a3e
00000180: b2f7 f7bd b5ad 7ebd 8475 203d d8f2 f83d
00000190: 2edc 313c 3dfc f53c c935 1d3c 02cf a63d
000001a0: 2012 c13d 698c 77bc f102 b63d ecb8 86bd
000001b0: b1ce b4bd a9f7 bf3c 8374 65bd 5204 f43d
000001c0: 7b4d 9abd f552 9fbc 5fd6 963c 0f4c bdbd
000001d0: 70c8 653d c5b6 c23c ec49 133e a508 013d
000001e0: b86b ee3d b3eb dc3d eaeb 8abd 85cb 0bbd
000001f0: be78 013e cc4a bb3c 6968 63bc d78b 703d
00000200: 6130 d23d 4be0 3e3d 8109 fd3d 2331 e9bd
00000210: af9b 4cba 1c2e 1a3e 73df 173e 8c37 a53d
00000220: bebc fe3d 4350 24be aa44 b43d fb88 d83d
00000230: 3193 0fbc 1ca2 873d b0e4 a4bd 82d8 a8bd
00000240: cd8c 923d 36c0 253d 9b75 f9bd 15d5 4abd
00000250: b4e8 e83d 7e0c ac3d a8ac 643d 5d08 d3bd
00000260: 1980 e33d 02e8 c03d fe4b c63d 37c1 11bd
00000270: 0e75 25bb 6165 943d 0766 00be 2af0 08bd
00000280: 2ed0 e53d a5a1 6fbd 4d79 823d 3b40 cbbd
00000290: 50aa b83c 435c b73d b2ef 093e e509 2abd
000002a0: d165 c1bd 0c30 ea3d aeca 14be b9d6 19be
000002b0: 2871 ac3c bc5e 063e 25f9 7d3d 6a9d 133d
000002c0: 4582 8f3d 0b32 b1bc 7db0 e93b befd 003e
000002d0: d45e 043e fb0b be3d 8052 b0bd 26a9 d0bd
000002e0: 957c 23bd 4741 c9bd c800 033e dd3d 88bd
000002f0: 60d7 bbbd 4f8b 153e 6b19 163e 7227 41bd
00000300: 39f5 b73c 4a2a c63d d98f 033d a0fa 0fbd
00000310: c302 2a3d 8241 a73d e56f ad3d 102f 8ebd
00000320: 8602 f4bc 973a ca3b bb23 bc3d fdbf 193e
00000330: 372d 203e 7fa7 dd3c 43df c1bd 2419 a636
00000340: 426b 313d 6aa8 b53d 28e5 ae3c 8489 94bd
00000350: 43a8 d93d ce80 75bd e16d 36bd 1851 003d
00000360: 8b31 f7bd e5da 053e 3fe4 e0bd 7743 a73d
00000370: 00f2 143d f648 133e cc11 9c3d 4c0e 89bc
00000380: 89c8 1ebe f91b 0bbd 0249 bdbd d8a8 31bd
00000390: 58a4 63bc e10b 8ebd 2918 24bd 29a4 8e3d
000003a0: ae4a 1c3d c78f 023e 9256 503d 6afa 923d
000003b0: e79b abbd c54f a7bd d26f 193e f583 6d3d
000003c0: a51f d03c d77e ce3c 1930 313c 661b e3bd
000003d0: 36d3 1d3e 376a 053e a56c 0f3e 0959 83bc
000003e0: cb36 e13d 8b74 5ebc 8d33 f1bd 9468 2c3c
000003f0: 02e8 f73d fd9e 8bbd b868 cd3c cb61 1f3e
-0.0013999203 0.14629677 -0.024277972 0.011111715 0.029197993 -0.023901362 0.050982255 0.11516198
-0.0057155336 0.09435833 0.078787886 0.050660484 0.0655959 0.04614926 0.042822853 0.058734294
0.0067274114 -0.0635977 0.07667599 -0.048851334 0.06765301 -0.18095623 0.1181427 -0.038336266
-0.07558848 0.050674945 -0.047226515 0.10386662 0.03215305 0.0118698655 -0.06202963 -0.05070003
-0.050879672 0.11555046 -0.033215337 0.016074916 -0.059858114 0.15542015 -0.13091564 0.07473346
-0.07640461 0.14507577 -0.0040926132 0.04890441 -0.08286442 -0.041342333 -0.017695472 0.14183126
0.081486404 0.09614764 -0.0048729056 -0.05688302 -0.071367435 0.10699379 0.050061267 0.06367956
0.06342136 0.13208067 -0.119510464 -0.071706474 -0.081282064 -0.05047315 0.1591037 0.124690175
0.0689678 0.15371986 0.0030078508 0.1372938 -0.072080664 -0.08061128 0.1468143 -0.027684793
-0.070197344 0.026675114 0.07964545 0.008287672 -0.07624862 -0.0541453 0.013662526 0.077440925
-0.046922754 0.16379514 0.07947274 -0.044391587 0.1384099 -0.052026592 -0.02766827 -0.060988385
-0.074298814 0.103639774 0.09761737 0.06910818 0.0035268697 -0.044887826 0.081402175 0.13491306
-0.12107791 -0.06217738 0.03917457 0.12155694 0.010855718 0.030027503 0.009595343 0.08144952
0.09427285 -0.01510916 0.0888728 -0.0657824 -0.08828486 0.023433523 -0.056019317 0.119148865
-0.075343095 -0.019448737 0.018412767 -0.09243023 0.056099355 0.023768792 0.14383668 0.031502385
0.116416395 0.107871436 -0.06783278 -0.03412964 0.12643716 0.022862814 -0.013879874 0.05872711
0.10263134 0.04660062 0.12355328 -0.11386325 -0.0007805181 0.15056652 0.14831333 0.08067235
0.124383435 -0.16046242 0.08802159 0.10573002 -0.0087631205 0.06622717 -0.08051431 -0.082444206
0.07155762 0.04046651 -0.121806346 -0.049519617 0.113725096 0.0840082 0.05582872 -0.103043295
0.11108417 0.09419252 0.09682463 -0.035584655 -0.0025246772 0.07245899 -0.1253892 -0.033432163
0.11221348 -0.058503766 0.063707925 -0.0992436 0.022542149 0.089531444 0.13470343 -0.041513342
-0.09443248 0.114349455 -0.14530441 -0.15023316 0.02105005 0.13122076 0.06200518 0.036038794
0.07007269 -0.021630308 0.0071316347 0.12596795 0.12926799 0.09279629 -0.086094856 -0.101885125
-0.039913733 -0.09826904 0.12793267 -0.066524245 -0.09171939 0.14603923 0.14658134 -0.04715676
0.022455798 0.09676035 0.032119606 -0.035151124 0.04150654 0.081667915 0.08468608 -0.0694257
-0.02978636 0.0061715352 0.091865025 0.15014644 0.15642248 0.027057407 -0.09466412 4.9501123e-06
0.04331518 0.08870013 0.021349505 -0.072527915 0.106277965 -0.05993729 -0.044538382 0.031327337
-0.120699964 0.13071783 -0.109810345 0.08167165 0.0363636 0.14383301 0.07620582 -0.01673045
-0.15506186 -0.033962224 -0.09242441 -0.043373913 -0.013894163 -0.069358595 -0.040062103 0.06964905
0.038157158 0.12750159 0.05086381 0.07176669 -0.083793454 -0.08169512 0.14984062 0.057987172
0.025405714 0.025206966 0.01081469 -0.1108921 0.15412602 0.13028799 0.14006288 -0.016033666
0.10996779 -0.013577591 -0.11777411 0.01052298 0.12104799 -0.06817434 0.025074348 0.15564649

lstm.weight_hh_l0 f4 [256, 64]
00000000: 0c6a 3b3d 1b0d 053e 2b01 89bd eb0c 84bd
00000010: 706c 1d3d 5a0c 153d ba95 a83c c1c0 133e
00000020: 35c1 483c 2739 0bbe ccbc 0f3c bdc6 563d
00000030: a6b2 d93d 84f1 7dbd e261 613d d9a8 e8bd
00000040: 7bbc b6bd 46a7 fdbd 598f babd 8839 8fbd
00000050: 4119 79bd 4c29 a9bd 4f5a e9bd 7776 7fbc
00000060: 4dcf 0cbb 6946 5dbd 6998 1bbd bab1 d3bd
00000070: 392b ea3d 3ba8 bebd db27 afbd 8c41 c0bd
00000080: 3fd3 fe3d f5fb edbd dbf5 c3bc 2679 23bd
00000090: 08ab 823c bbfc acbd c1b5 0c3e fe5c 843d
000000a0: b2cf a1bd 79fb 0e3e cd63 fcba 5a94 163d
000000b0: 37a5 ab3d 7894 a23c a182 f63d 799c 52bd
000000c0: 08b7 00be 21d2 543c 5b97 d2bd e829 303e
000000d0: 2c41 0d3e 96d4 c83d 3804 2bbc d8cf 593d
000000e0: 05fc 1bbd 0dec d9bd 27e2 0b3e fca7 4f3d
000000f0: f9e4 083d be5d d43d 247c 773b f13c 2b3d
00000100: b0b6 53bc 6d53 78bd 05d6 afbc e444 4abd
00000110: f1a3 dc3d 7bae 1cbd cfc7 9bbd b9b3 ec3d
00000120: 5da9 93bc dc82 1fbc f082 e7bd 6ca6 bbbd
00000130: a844 98bd 05cd df3d 0d05 6d3d c120 b1bc
00000140: 8ef8 a33c 73a2 b4bd 1685 06be af7e 83bc
00000150: 0eb7 af3d 8472 cbbd b2a3 60bd 0e2a e1bd
00000160: bc76 e1bc 5c05 e13c a17d b33d 0097 fabd
00000170: df3d 9b3d 065b c83c 9923 113d 9f57 ca3d
00000180: 4d95 c6bd badd 42bd 32ef 0b3c c4ef b63d
00000190: d352 b4bc b661 bf3d 7919 f83d 4187 9abd
000001a0: c4d8 8cbc 591a 993d faed d4bd b9b5 04be
000001b0: 8e81 e63d ebc2 d63d 9e51 ddbc ab0f 993d
000001c0: cbe0 1dbd 0c15 453d 4a61 6a3d 68cb 1d3e
000001d0: ad7e 8b3d 0ab3 c03d 53b9 debc 8d98 f23d
000001e0: 1c45 d53d f275 723d 33d5 d83c 628f de3d
000001f0: 4e2d fcbd 0865 e13d f07f 2e3c aea1 ffbd
00000200: 5520 43bd 9fe1 6d3d df11 8ebb bbbe 383d
00000210: b387 0e3d cea2 7fbd 405e bb3c 4a1c 023e
00000220: a670 a13d 955a 0fbe c39c f9bc 754c 803d
00000230: f803 b1bb dfc2 53bd 757a c23d d251 a73d
00000240: 441a a7bc 46e6 78bd 945e 10be 31e9 a2bd
00000250: 68f7 d93d 1684 0d3e fdc4 4e3d 88e5 8cbd
00000260: 9197 c9bd 470c 933d ac2a 703d 57b8 89bd
00000270: b130 9e3d 0a84 903d 6913 8b3d 997c 223d
00000280: 1838 cc3d 9893 3bbd 212a d83c 5869 36bd
00000290: ab55 7fbd eaf4 db3d b336 023e 3d56 313d
000002a0: 132b 40bd a67f d43d e332 70bd 7ced 5d3d
000002b0: 06d4 20bc b888 673d ac26 aebd b9d6 85bd
000002c0: 75a7 09be 2567 0fbd 8158 c2bd 1221 b5bd
000002d0: e726 99bd bddb d73d 636a b53d 6f8b 24bb
000002e0: 776f 85bc 24b5 c8bc 0a54 853d 0791 adbd
000002f0: 8f77 f53b d09e b83d 180d 5b3c 62f4 9bbd
00000300: a025 09bd 3dd7 59bd 792a c83d e980 023e
00000310: f291 8cbd aade 203d 347c 0a3e be52 48bc
00000320: 81ce a63d 66f6 693d 53d2 513d d51e 143b
00000330: eb30 313d b1cc 37bd 31e5 043d 0f1b 9b3c
00000340: 7864 d7bc 7890 893d 0624 5e3d d577 39bd
00000350: 1baf 3dbd a6a4 f8bc 8db4 c43d 4b50 273e
00000360: e7af 42bd 02ff 9c3d 8c51 3abd aba7 223c
00000370: 4f1d 063e 96a9 39bd 9df4 28bd 8feb b9bd
00000380: 1271 aabc 47ae debc 0aa6 f3bd 7e40 693c
00000390: 898f 363d 9ceb ca3d 6bfa cbbd 8bd3 bf3d
000003a0: 7ae1 4c3d 4b66 35bd f8f4 9739 5364 2fbd
000003b0: 7fac e83c 7126 b73d 2398 a33d 1014 46bc
000003c0: 036e 543d b5c2 17be 826e eabc fb32 65bc
000003d0: b874 383d 9b35 05bc 2d56 86bd d89b b5bd
000003e0: a89c 52bd 9189 95bd 3c58 743c 8130 053d
000003f0: b5a3 fdbc 2884 223b 0d5c 043d e10c c4bc
0.04575543 0.1299328 -0.06689676 -0.064477764 0.038433492 0.036388732 0.020579208 0.14428999
0.012253095 -0.1359602 0.00877304 0.052435625 0.106297776 -0.061997905 0.05502499 -0.1136033
-0.089226685 -0.123854205 -0.09109373 -0.06993395 -0.0608151 -0.0825983 -0.11394178 -0.015592209
-0.0021485866 -0.054022226 -0.037987147 -0.10336633 0.11434025 -0.09309431 -0.08552524 -0.09387502
0.12442636 -0.116203226 -0.023920944 -0.039910458 0.015950695 -0.08446642 0.13741209 0.06463049
-0.07900943 0.13963117 -0.0019255817 0.036762573 0.083811216 0.019846186 0.12036634 -0.051418755
-0.12569821 0.012989552 -0.10282775 0.17203486 0.13794392 0.098061725 -0.010438018 0.05317673
-0.03808214 -0.10640726 0.13660489 0.05069731 0.03342149 0.103694424 0.0037763203 0.041806165
-0.012921974 -0.060626436 -0.021464357 -0.049382105 0.10773457 -0.038252335 -0.0760647 0.11557717
-0.018025095 -0.009735789 -0.11304271 -0.09162602 -0.0743497 0.10927776 0.057866145 -0.021622064
0.020015981 -0.08820047 -0.13136706 -0.016051618 0.08579837 -0.099339515 -0.054843612 -0.109943494
-0.027522437 0.027468376 0.08764196 -0.12235832 0.0758016 0.024457466 0.03543434 0.09879994
-0.096964456 -0.047574736 0.008540915 0.089324504 -0.02201215 0.09344809 0.121142335 -0.07545329
-0.017193206 0.074757285 -0.10396953 -0.12959947 0.11255179 0.104863964 -0.027016457 0.074736916
-0.038544457 0.048115775 0.05722169 0.15409625 0.06811271 0.09409149 -0.027187979 0.11845503
0.10413572 0.059194513 0.026468849 0.10867192 -0.12313329 0.11005598 0.01065062 -0.1248201
-0.047638256 0.058076497 -0.0043356265 0.04510377 0.03479738 -0.062411122 0.02287209 0.12706104
0.07882814 -0.13999398 -0.030470258 0.06264583 -0.0054020844 -0.051699515 0.09496013 0.08169903
-0.020398267 -0.06076648 -0.14098579 -0.07954634 0.10642892 0.13819918 0.05048083 -0.06879717
-0.09843362 0.07180076 0.058634445 -0.06724613 0.07724131 0.070564345 0.067908116 0.039669607
0.099716365 -0.045795053 0.026387276 -0.044534057 -0.06233756 0.10740073 0.12716179 0.043295134
-0.04691608 0.103759095 -0.05864228 0.05418156 -0.009816175 0.05652687 -0.0850347 -0.06535096
-0.13442786 -0.035010476 -0.09489537 -0.08844198 -0.07478123 0.105399586 0.08858182 -0.0025107523
-0.016288502 -0.024500437 0.0651017 -0.084749274 0.007491059 0.09014666 0.013369821 -0.07614972
-0.033483148 -0.053183783 0.09773726 0.12744488 -0.06863774 0.03927485 0.13523942 -0.0122267585
0.08144856 0.05711975 0.05122597 0.0022601385 0.043259542 -0.044872943 0.032445136 0.018933801
-0.026293024 0.06717008 0.054233573 -0.045280296 -0.04630957 -0.030351948 0.0960475 0.16339223
-0.047531035 0.076658264 -0.045487925 0.0099276705 0.13097118 -0.045327745 -0.041248906 -0.09078132
-0.02080587 -0.027182711 -0.11896904 0.014236568 0.04457048 0.0990822 -0.09959873 0.093665205
0.05001972 -0.044287007 0.0002898348 -0.042820286 0.028402565 0.08942879 0.07988002 -0.012089744
0.051862728 -0.14820369 -0.028617147 -0.0139892055 0.045033187 -0.008130456 -0.065594055 -0.088676155
-0.05141893 -0.07301629 0.014913615 0.03251696 -0.03096185 0.002479801 0.03231435 -0.023931922

lstm.bias_ih_l0 f4 [256]
00000000: 84f1 a03d 2ec9 61bc 8fac 0d3e 167e 243e
00000010: 23df 98bd 076f 213e b1f9 8a3d 34d3 6e3d
00000020: a248 43bd 5ebe 693d 41a4 a73d 147f 3e3d
00000030: 7d11 4f3d 27e7 153d 686c acbd b890 72bc
00000040: 6172 c03c 865b aa3d ca02 193d 71aa 1bbd
00000050: f676 d33c fbda f93d fb30 6e3d b2b1 e7bd
00000060: dc5a d03c 433d 9b3c 9018 8dbd 2fa2 123d
00000070: be33 e83d d2a1 e93d 9692 8dbd ce0d be3d
00000080: bdeb 6dbc 9fad f73d bd7f 783d 6306 b23c
00000090: 54bd fcbd 20be c2bd 905b 4cbd a148 9f3d
000000a0: c21c da3d afcd 35bd f62a a7bd b184 373c
000000b0: eff9 8a3d 1369 2bbd cdb3 a5bd 7085 733d
000000c0: 01b0 e83d 9a57 893d e62c ae3d a0f5 023d
000000d0: 3fc8 103e 6a9e 313d b00a 21bd b8de 14bd
000000e0: 35fe 843d 44f7 de3d e871 213d d34f 073d
000000f0: 8251 e03d 6834 6ebd 80d1 58bd c3d4 cd3d
00000100: 1a52 ff3d 16dc afbd d9a2 c13c 9171 583d
00000110: add1 6bbd 46eb 1b3e d0d7 5dbb cfcc c7bb
00000120: aa51 e33d 36c9 27bd c7bd 893b 1843 cdbd
00000130: f702 c6bc 208d f13c fc0a ec3d 892d c63d
00000140: 8847 0a3e c263 9e3c 61d3 953d 0bcc 4c3c
00000150: 886c b3bd 3157 113e 41ec 86bd 065b f13d
00000160: 6f19 55bd f07e c73d b568 e1bd bfa7 843d
00000170: f79b 8fbd 95ee 383d 14b0 d0bd b25e 4e3d
00000180: d08d 04bd 7618 733c 42b0 9dbd b6ea 1a3e
00000190: 8c21 983d 3578 b7ba 0029 073e 0c81 69bc
000001a0: 4c78 203d 6d12 ff3d a791 8dbd 73fc 99bd
000001b0: f98a 293d 98c5 c83c c2f2 9b3d a021 f83c
000001c0: c7b8 91bd 8e22 e43d 633e 513d 798d 933c
000001d0: c73d ed3d 88fd cebd 8a32 85bd 2df1 d43d
000001e0: d519 903d ca71 fe3c da88 03bc 5408 733d
000001f0: f30f a83d 88fe 653d 5e66 db3c 39d6 f93d
00000200: 6485 813d 95ee fa3d 5962 f1ba fbe6 053b
00000210: d46c ffbd 37f8 f8bc 5c63 7bbd b272 1fbd
00000220: d45b 933d 8651 063d e09a e9bd e63a 0bbd
00000230: 7581 0a3e f2cd 823d 21e3 9e3d fa54 f8bc
00000240: 65be 4abc 6740 3f3d d641 e23c f21e 4cbd
00000250: 0a57 9c3d 8fde bc3d bd16 a5bd c613 693d
00000260: 1475 80bc 70e4 2abd a4cf a6bb 77c1 93bd
00000270: eb6b 973c 5db5 a03d b357 f23c b828 54bd
00000280: 3b37 743d 9dbe a23c cb1e 99bd 8b49 a13d
00000290: 1943 623d d264 b93d 1f77 bdbd d2e3 1e3c
000002a0: c447 113d 7ac9 aa3d 0eb5 bdbc 85d6 233d
000002b0: f378 20bc e416 f03d f2f6 c83c f069 a0bd
000002c0: 68a1 8cbd 2bf3 e9bd 89ec 27bd 63ef fa3c
000002d0: fa7d f6ba be43 48bd 810b ad3c b312 91bd
000002e0: 4fd9 4c3d f1c4 01bd e88f a4bd 515e fabd
000002f0: 4f1c a73d 36da d73d 302a f1bd 4be6 a33d
00000300: e7ce 083e 777a 60bd 9c41 663b e0df 0e3e
00000310: 01e3 e23c b3fc d03d aae7 18bd ce2f 073e
00000320: 66a6 8f3d 9e15 b5bc 6fd3 c3bd adaf 923d
00000330: 60d4 bb3d 7f3c b23d d4d3 3cbd dd74 90bd
00000340: c6d2 023e fd6d c83a ae63 ce3c 3fbc 293d
00000350: 7538 9c3d 261d 8bbd c5e3 b43d 80ed 483c
00000360: 205d 19bd 21eb ccbd 0fd4 19bd 76df 81bd
00000370: b546 15bc 636b 71bd 56a9 68bc c2e1 2abd
00000380: 58a5 02be be09 f53b 3cdc 79bd 2db3 0b3d
00000390: 5442 bfbd 6438 f63d 66d9 c8bd 7779 493d
000003a0: bd05 843d 9250 1bbb 7e46 c0bc c059 7bbd
000003b0: e290 683a 2138 9abd acf5 343d b7a9 d13d
000003c0: a391 c9bb fc31 d7bc b260 a03d d537 71bd
000003d0: e4af 0fbd 4b11 c2bc 4a40 c53c 7797 c63d
000003e0: ac81 d13d 0ea0 383c 203b 7abd afbc 8bbc
000003f0: ed32 01bd 6920 183e b647 623d c31b 9e3d
0.078585654 -0.013780875 0.13835357 0.16063723 -0.07464435 0.1576501 0.06785906 0.058306888
-0.04767669 0.057066314 0.08185626 0.04650791 0.050553787 0.036597397 -0.08419114 -0.014805011
0.02349204 0.08318238 0.037356175 -0.038004342 0.025813561 0.1219997 0.05815218 -0.113131896
0.02543395 0.01895011 -0.068894506 0.0357992 0.11337994 0.11407818 -0.06912725 0.09279977
-0.014521536 0.120936625 0.060668696 0.021731561 -0.12340799 -0.0950892 -0.04989201 0.07777525
0.10650016 -0.04438561 -0.08162491 0.01120107 0.06785952 -0.041848253 -0.08090935 0.059453428
0.11361695 0.06706162 0.085046574 0.031972528 0.14138888 0.043363966 -0.039316833 -0.036345214
0.06493799 0.10887006 0.03941527 0.03303511 0.109530464 -0.058155447 -0.05293417 0.10050347
0.124668315 -0.085869 0.023637222 0.05284268 -0.05757301 0.15226468 -0.0033850558 -0.006097413
0.110995606 -0.040963374 0.0042035314 -0.10022563 -0.024171336 0.029486239 0.115255326 0.09676654
0.1350385 0.019334678 0.07315708 0.0124998195 -0.08760935 0.14193417 -0.065880306 0.117849395
-0.05202621 0.09741008 -0.110062994 0.064773075 -0.0701217 0.045149405 -0.10189834 0.050383277
-0.032361805 0.014837375 -0.07699634 0.15128598 0.074282736 -0.0013997616 0.13199234 -0.014251959
0.039177224 0.12454686 -0.069125466 -0.07518854 0.0413923 0.024508283 0.07614662 0.030289471
-0.071153216 0.11139403 0.051084887 0.018011795 0.11584049 -0.10106951 -0.0650378 0.10397563
0.07036177 0.031060118 -0.008028233 0.059334114 0.08206167 0.056150943 0.02678221 0.12199063
0.0632427 0.12252537 -0.0018416151 0.0020431865 -0.12471929 -0.030391796 -0.061374053 -0.03892774
0.07195249 0.03279259 -0.11406493 -0.033991717 0.13525946 0.06386937 0.07758165 -0.030313957
-0.012374495 0.04669228 0.027619284 -0.0498342 0.07633789 0.09222137 -0.080609776 0.056903623
-0.015680827 -0.04172176 -0.0050906707 -0.07214635 0.018484076 0.07847092 0.029582834 -0.051796645
0.059622984 0.019866282 -0.074765764 0.07875355 0.05523977 0.09052433 -0.09251236 0.009697871
0.03546883 0.0833921 -0.023157623 0.039999504 -0.009794462 0.11723116 0.024531815 -0.07832706
-0.06866723 -0.11423334 -0.040997062 0.030631727 -0.0018805854 -0.04889273 0.02112365 -0.07083645
0.05001193 -0.03168196 -0.080352604 -0.12225021 0.08159696 0.10539667 -0.11775625 0.08002909
0.13360177 -0.05480429 0.003513432 0.13952589 0.027696135 0.102044486 -0.037330307 0.1320183
0.0701416 -0.022105034 -0.09561812 0.07162414 0.09171367 0.08702945 -0.046100453 -0.0705354
0.12775716 0.0015291568 0.025194015 0.04143929 0.07627956 -0.06792669 0.08832506 0.012263656
-0.037442327 -0.10005785 -0.03755575 -0.0634145 -0.009111096 -0.058940303 -0.014200529 -0.041719206
-0.12758386 0.007477968 -0.061001047 0.034106422 -0.09338823 0.120224744 -0.098070905 0.049188104
0.06446407 -0.0023699147 -0.023471113 -0.06136489 0.0008871687 -0.07530237 0.044179603 0.10237449
-0.0061513945 -0.026268952 0.07830943 -0.058891136 -0.03507985 -0.023689887 0.024078507 0.096968584
0.10229811 0.011268629 -0.061091542 -0.017057745 -0.031542707 0.14856113 0.05524417 0.07720139

lstm.bias_hh_l0 f4 [256]
00000000: 3e8c 0bbd 1e0d 73bd 5255 4f3d 8e7e f23d
00000010: a5b1 f43d 35bf d93d 5b71 653b 7a1e a3bd
00000020: 8a5c 943c dca0 27bc b1ef fc3d 36ee 023e
00000030: b52f 603d 8321 383d 45f6 973d 2cd4 023e
00000040: edb0 d7bd 112c ff3d 3559 b7bd a5fd dabc
00000050: c764 a9bd 30a7 37bd 97a1 2d3c 9962 973c
00000060: 825c d3bd 272e f53c 01bf c93d a0be dfbd
00000070: a3be 50bd dd71 45bd bf3e bbbc 36d5 3abd
00000080: f96a c7bc 1858 353c b612 dc3d 7b83 f43d
00000090: 3892 ab3d dc18 c1bc 1baf 203d 6c1e 723c
000000a0: 4d42 103c 760f e1bd 5e63 7e3d 930f b2bc
000000b0: d552 13bc b21c b539 a7f6 acbd f542 c43d
000000c0: 5e8f 433c 1b17 00bd 8752 8a3c 4350 fa3d
000000d0: 4d78 aabd 0fe4 85bd 7f56 7ebd 1be0 8d3d
000000e0: ae84 ffbc 3468 933d 2eda a2bc 9a23 9b3c
000000f0: 20ec 55bc b064 82bd 87e1 ab3d db6f 473d
00000100: 4ff7 6b3d aadb 013e 3aef 89bd c214 193e
00000110: 5f72 323c e976 053e 1300 8e3d 9d9b 033e
00000120: e857 adbd 7e8c da3d 0d7d ed3c 331f e8bc
00000130: 272c 35bd 864c c4bd aac5 f6ba e51f 6ebd
00000140: 0f56 6abc 24ba e8bc 4f6b 723d 6421 5c3d
00000150: 5fcb 9a3d 68da 8fbd b5ba d2bd 870f e53d
00000160: 8031 ff3d 5c89 c83d 43a2 983d de5b 053d
00000170: f771 a93d 8ddb 3cba 4e8a 84bd 6462 71bd
00000180: 3cb6 49bd f539 ae3d 908a 883d 517e c2bc
00000190: fc78 dbbd 655e 243c 25b8 053e e84e 423d
000001a0: 5563 b9bd 48cb b8bc 9fee 8c3d 9738 83bb
000001b0: 7067 83bd ead1 bb3b c8ba 6fbd 45fe a6bd
000001c0: 83a3 d0bd 1e8c 5b3d d424 ab3c e9c8 163e
000001d0: d92b aabd f6cd e43c 1e3c 26bd c962 c2bd
000001e0: b5ef a23d f032 84bd 0b96 c13d acc8 0c3e
000001f0: 1e22 283e 94ef 1c3e 28e9 d03d c6d8 c73c
00000200: 51ed d83d cdae 76bd 5feb b63d 042e c63c
00000210: b9a9 0bbc 49df 823c c65b 8a3c a7b9 1b3c
00000220: 6ed7 8cbd 9021 c53c 0ca5 cd3d 206d 333b
00000230: e390 7c3d 740d 663c 07af 843d 0bad bbbd
00000240: eef3 073e 3be7 a8bd 5045 20bb 85e8 a83d
00000250: bcdf cebb 7024 06be 6dbf 71bb eed7 2f3d
00000260: d56e d8bd 697e 88bd 6c7b 653d 6701 a0bd
00000270: 80c2 d03c b987 bc3d 88b3 a7bd 7b33 d83b
00000280: 82d2 f0bd 77f4 26bd 8186 cdbd d16b 4cbd
00000290: 5af6 89bd ead9 dc3d 9ffb 963d 33be 12bc
000002a0: ac5c 1ebd deff 7d3d 918f c3bd 8de5 6cbd
000002b0: 04ad 9fbd 1c49 fe3d e4a9 d6bb c3dc fc3d
000002c0: e0bb dcbd a138 51bd e851 b8bd a566 9fbd
000002d0: b38a a73d 424c 98bd 2132 b63c 6542 b4bd
000002e0: a04b ec3d b4d0 0dbd f27f a7bd 8e27 aabd
000002f0: abbf a5bd 36d5 07be 7ad9 9f3d 8fa1 ab3d
00000300: 1683 fa3d d36d 67bd b388 24bd 5c3e bfbc
00000310: c0e4 223d aa0d efbc 04e1 5ebd 378b a5bd
00000320: 0669 8cbd a09e 6fbd 696d 013d 74fa d83c
00000330: 0e16 cb3d bcc8 83bb 3906 82bc 6999 d1bd
00000340: c3cd e33d e5a8 88bc 7b4a 063e f1b3 ecbd
00000350: c1a5 abbd 609d 4ebd ba9b aabb 44b4 14bd
00000360: 64eb 353d 66d5 8cbc 8400 2cba 4515 383d
00000370: 61fb 273b 4725 643d ddb3 a4bc 2a91 b4bd
00000380: b898 ba3c 60c6 97bb 86c1 603b 1c2b 053e
00000390: 0e43 7ebd 6975 2cbd 8ec3 0dbd 6d96 d9bd
000003a0: ce4d c1bc c824 9dbd 7219 63bd 45ae 38bd
000003b0: 9bb2 90bd ce94 193d b3f2 4d3c b349 24bd
000003c0: 476d 5fbd 814e ad3d 66c0 febc 3b7e dd3d
000003d0: bc13 aebd cc9e 3ebc f8a0 78bd a2cd 0a3e
000003e0: b5f1 823d 4b1c 2d3d 1d9c dc3d abc2 1ebd
000003f0: a58a 46bd 694a 54bb 17bb ba3d 508a 613d
-0.034069292 -0.05933868 0.050618477 0.11840545 0.119479455 0.10632173 0.0035010192 -0.07964797
0.018110532 -0.010231223 0.12350405 0.12786183 0.054732997 0.044953834 0.07420019 0.1277625
-0.10531793 0.12459577 -0.08952562 -0.026732275 -0.08271175 -0.044837177 0.010597608 0.018479632
-0.10320379 0.029929234 0.09850884 -0.10925031 -0.050963055 -0.04820429 -0.022857068 -0.04561349
-0.024343 0.0110683665 0.10745756 0.119391404 0.083774984 -0.023571424 0.039229494 0.014777761
0.00880487 -0.10989277 0.062106483 -0.021735942 -0.008991917 0.0003454439 -0.08445483 0.095830835
0.011936037 -0.031272035 0.016885055 0.1222234 -0.08323727 -0.06537639 -0.062094208 0.0692751
-0.031191196 0.071976095 -0.019879427 0.018937875 -0.013056785 -0.06366861 0.08392625 0.048690658
0.0576089 0.12681451 -0.06735082 0.14949325 0.010891526 0.13033642 0.06933608 0.1285233
-0.084640324 0.10671328 0.028990293 -0.02833519 -0.04423156 -0.09584908 -0.0018827219 -0.058135886
-0.0143027445 -0.028409071 0.05918437 0.05374278 0.07558321 -0.070240796 -0.10289518 0.11184602
0.12460613 0.09791824 0.07452824 0.032558315 0.0827369 -0.00072043465 -0.06471692 -0.058931723
-0.049246058 0.08507148 0.06667054 -0.023741873 -0.10716435 0.010032271 0.13058527 0.047438532
-0.09052149 -0.02255787 0.06881451 -0.004004549 -0.064162135 0.005731811 -0.058527738 -0.08153967
-0.101874374 0.053600423 0.020891584 0.14725079 -0.083091445 0.027930241 -0.040584676 -0.09491498
0.07955877 -0.06455028 0.094524466 0.13748425 0.16419265 0.15325767 0.10200721 0.024395358
0.105921395 -0.060225297 0.08931612 0.024191864 -0.008524352 0.015975611 0.016889464 0.009504712
-0.068770275 0.024063855 0.10041246 0.0027378276 0.061661612 0.014041293 0.06478696 -0.09163865
0.13276646 -0.08247229 -0.0024455376 0.082474746 -0.0063132923 -0.13099837 -0.003688778 0.042930536
-0.105680145 -0.06664736 0.056025907 -0.078127675 0.02548337 0.092055745 -0.0818854 0.006597934
-0.11758901 -0.040760484 -0.1003542 -0.04990751 -0.06736441 0.10783751 0.07372212 -0.00895648
-0.038662598 0.062011592 -0.095488675 -0.057836104 -0.07796672 0.12416288 -0.0065510143 0.123467945
-0.10778022 -0.051079396 -0.089999974 -0.0778325 0.08180752 -0.0743642 0.0222407 -0.08801726
0.11537862 -0.034622863 -0.081787005 -0.08308326 -0.080931984 -0.13264927 0.07805152 0.08380424
0.12232034 -0.05650122 -0.04016943 -0.023345165 0.039768934 -0.02918132 -0.05441381 -0.08083194
-0.06855969 -0.058500886 0.031598482 0.026486613 0.09916316 -0.004021732 -0.015872108 -0.10234339
0.1112323 -0.016682098 0.1311435 -0.115577586 -0.083812244 -0.050443053 -0.0052065523 -0.036304727
0.04441394 -0.0171916 -0.0006561356 0.04494216 0.0025632011 0.055699613 -0.020105297 -0.0881675
0.0227779 -0.0046318024 0.0034295036 0.13004726 -0.062075667 -0.04210416 -0.034610324 -0.106243946
-0.02359667 -0.07673031 -0.05544419 -0.04508807 -0.07065316 0.037495427 0.012570071 -0.040109348
-0.054547574 0.08462239 -0.031097602 0.10815092 -0.08499858 -0.01163454 -0.060700387 0.13555005
0.06393758 0.04226331 0.10771964 -0.03875987 -0.048472065 -0.0032392985 0.09117716 0.055063546

lstm.weight_ih_l1 f4 [256, 64]
00000000: acb3 8cbc d897 e3bc 3d12 d0bd 637b 923d
00000010: 40ef f63c 8c4f 83bd afd3 bbbb 71a8 8dbc
00000020: 9db7 2cbd 084d 01be 8d85 14bd ecfa 243c
00000030: 97dc e63d cee6 a63d b55e bd3d bb3e 39bd
00000040: 82e1 0a3d 2516 eb3a c5d3 8fbc 39cb e23d
00000050: 8ca8 fc3d 7469 cc3d 044d 383d ad3a 5dbd
00000060: 90af 0fbd d2d6 7b3c 8edd ec3d 13b0 293d
00000070: d1fc 62bd 6dd4 2abc 5c0a c0bd e921 b9bd
00000080: ed00 533d e638 803c d73a c0bd 6cbf b0bd
00000090: b94b f73b 95cb 7f3d 411d f13d ff6b b7bd
000000a0: 31cb 01be fe24 133d 589b a73d 0a5a 02be
000000b0: c08b c7bd 5a43 e43d 381b 923d 1339 d73c
000000c0: a7e7 04be 09ce ebbd 26a7 713c c073 9fbd
000000d0: 2c7c b83d 8112 6bbd 83c0 d7bd 8731 84bd
000000e0: 3f5b b53d f03b 15be 19a0 d93c be7b fbbd
000000f0: 680b f1bd 8fd3 8abd aa56 d13d 49d0 47bd
00000100: f245 34bd d0c1 be3d 0d1c 18bd ae3b c93d
00000110: 9027 c13d 0aec 3a3d 6a9e 9a3d 08aa 87bd
00000120: 9b3c 0abd 4e9b a1bd d455 a83d fe90 97bd
00000130: 10b2 a9bc 3d22 e93c 62d4 ecbd 2203 833c
00000140: ab23 1e3d 2d65 2d3d 180b aa3d 4d72 1dbd
00000150: 5c3d 8abd c968 c93d 11b8 063e 1932 00bd
00000160: 97f9 9cbd 0fee 42bd 5b6e df3d d774 fa3c
00000170: 6cf0 3cbd 8a4d dbbc 6f5d d1bd e650 613c
00000180: 4340 6a3d fbd6 3ebd 21d7 0ebb c20e d03d
00000190: 594e a1bd cf3c 41bd 9c38 c5bc 7572 c53d
000001a0: 0a66 f1bd 5082 763d d5ef 6fbd f2a2 c7bd
000001b0: 5be4 acbd 8df5 1ebc 0bb0 e1bc dbe8 83bd
000001c0: 385c a73d 70c5 cf3d 26ef 5d3d 6099 f13d
000001d0: 2d4e 943d 7ad6 b63d 28f7 f1bd f2af 283c
000001e0: e992 5dbc 2a11 8bbc 7d12 0d3e 29c3 d7bd
000001f0: aec3 fcbd cbad fc3c 857f 153e 52de c23d
00000200: 8e21 9abd 97e7 9fbd bc07 18be a66a b23d
00000210: 8d09 d6bd 64e1 973d 71cf a5bd 8508 203d
00000220: 016d 17bd 11ad 453d 230c 8d3d 22c9 82bd
00000230: e6ef b7bb 3a70 45bd 9965 873d e380 88bd
00000240: 5a4e 11be 0db9 8e3d eaee f33d d8ef 33bd
00000250: e1fa 9b3c 5564 8dbd 88d6 b2bd c497 e93d
00000260: e868 a8bc 7c67 b3bd 75f9 3b3d 3e03 cdbd
00000270: 8001 9a3d b8ad 803b a8ba d33d 8795 d4bd
00000280: ddb7 873c d5c9 bcbd b798 50bc 10e6 173e
00000290: 3d6f 6dbd fd3a d1bd 41fc e3bd 1c12 b73d
000002a0: fc26 62bd d947 ebbd c1d5 173d f823 9ebd
000002b0: 8fef d43d 8a04 1b3d 5af9 0dbe 59b3 b5bd
000002c0: 9cbc bc3d 5203 43bd a647 043e e86f b13d
000002d0: 6a80 a9bd f7dd 8f3d 498e 643d 3cf8 f63d
000002e0: 2128 17bd f57d 083e b1db 99bd befb 75bd
000002f0: 2a35 d13d aa78 36bc 1479 8ebd 6aa9 bdbd
00000300: a268 193d 10af d23c 4918 383d 2bd3 763d
00000310: 2255 8a3c e2b5 77bd 4cfb c03d dc0a 91bc
00000320: e7ab 6b3d 56d8 643c f1ef 1c3d 0aa8 863d
00000330: eb49 c63d 739e 7bbd 738f 83bd 446c ad3b
00000340: f238 e23d 6bc1 f63d 964e c23d 9726 5ebb
00000350: 6e51 8cbd 4af7 d43d 1e2e 863d 2323 893d
00000360: 8094 943d 737d b9bd 5894 1bbd 5e50 873c
00000370: 1d88 493d 7110 803d 8b02 793d 6708 e1bc
00000380: eaab 2abd 8fca 973d 5916 f13c 7a02 80bd
00000390: e2c3 873c 99d2 f1bd 3b11 dbbd 7cc6 fa3c
000003a0: c1c9 043d 7418 853d 22b6 96bc ea64 203c
000003b0: 2139 b13b 1f46 ac3d e2e4 3f3d f4af bf3d
000003c0: ddce 90bd 326c 4a3d 337e 6d3d 1d97 85bd
000003d0: 61f9 2e3d d26c 343d 0d0a a9bc 292d 1f3d
000003e0: 51fb b83d 0af4 213d 61f2 4e3d deef 92bd
000003f0: 083d 0b3d a845 703c ebae b63d 2775 eabd
-0.017175518 -0.027782366 -0.10159729 0.071524404 0.03014338 -0.06411657 -0.0057320218 -0.017292233
-0.042167295 -0.12627041 -0.036260176 0.01006959 0.11272543 0.08149491 0.092465796 -0.04522584
0.033906467 0.0017935677 -0.017557034 0.11073918 0.12336835 0.09981051 0.044995323 -0.054011036
-0.03507954 0.015371041 0.11565696 0.041427683 -0.055416886 -0.010426623 -0.09376976 -0.09039671
0.051514555 0.015652131 -0.09386223 -0.08630261 0.0075468686 0.06245001 0.11773158 -0.089561455
-0.12675168 0.03592395 0.08183926 -0.1272966 -0.09743452 0.11145659 0.07134098 0.026272332
-0.12978993 -0.115139075 0.014749324 -0.077857494 0.09008059 -0.057390694 -0.105347656 -0.06454759
0.088552944 -0.14573646 0.026565598 -0.12279461 -0.11769754 -0.06778633 0.10221608 -0.04878262
-0.044012018 0.093143106 -0.037136126 0.09825836 0.09431374 0.04563526 0.07549746 -0.06624228
-0.033749204 -0.0789095 0.082194954 -0.07400702 -0.02071479 0.028458709 -0.11563946 0.015992705
0.038608234 0.042332817 0.08302897 -0.038439084 -0.067499846 0.09834439 0.13156153 -0.031297777
-0.07664793 -0.04759031 0.109097205 0.030573292 -0.04612772 -0.026770372 -0.10222899 0.013752198
0.05719019 -0.04659174 -0.0021795707 0.10159065 -0.07876272 -0.047177132 -0.024074845 0.096409716
-0.117870405 0.06018287 -0.05857833 -0.09747876 -0.08441993 -0.009702099 -0.027549764 -0.06440898
0.08171886 0.1014508 0.054183148 0.11796832 0.07241473 0.08927627 -0.118147194 0.010295855
-0.013523796 -0.016975958 0.13776584 -0.10535271 -0.123420104 0.03084459 0.14599426 0.095150605
-0.07525931 -0.07807844 -0.148467 0.08711748 -0.104510404 0.07416037 -0.08096207 0.039070625
-0.03696919 0.048260752 0.068870805 -0.06386019 -0.005613315 -0.04820273 0.06611175 -0.06665208
-0.14190045 0.069688894 0.119108036 -0.043929905 0.019040527 -0.069039024 -0.08732325 0.114059
-0.020557836 -0.087599725 0.045892198 -0.10010384 0.07519817 0.003926959 0.10338336 -0.103800826
0.016567165 -0.09218184 -0.012731723 0.14833856 -0.057967413 -0.10216329 -0.11132098 0.08939001
-0.05521296 -0.11488313 0.037069086 -0.07721704 0.10397255 0.037846126 -0.13864651 -0.088720985
0.09215662 -0.04761059 0.12917957 0.086639225 -0.08276446 0.07024758 0.055799756 0.12059066
-0.036903504 0.13329299 -0.07512606 -0.060054533 0.10215218 -0.011137167 -0.069566876 -0.09260829
0.0374533 0.025718242 0.044945035 0.06025998 0.016886298 -0.06047619 0.09422931 -0.017705373
0.057536986 0.013967594 0.038314763 0.0657502 0.096820675 -0.061430406 -0.06423845 0.0052924473
0.11046018 0.1204861 0.09487645 -0.0033897513 -0.06851469 0.10398729 0.06551765 0.06696155
0.072548866 -0.09057131 -0.03798327 0.016517814 0.049202073 0.06253136 0.06079344 -0.027469827
-0.041667856 0.07411682 0.029429602 -0.06250472 0.016572896 -0.118077464 -0.10696646 0.030612223
0.03241897 0.06498805 -0.018397395 0.009789685 0.0054084216 0.08411812 0.04684914 0.09359732
-0.07070706 0.04941959 0.05798168 -0.06522963 0.042718295 0.04404909 -0.020634675 0.038861427
0.0903231 0.039539374 0.05052412 -0.07174657 0.03399375 0.014665045 0.08920082 -0.11448126

lstm.weight_hh_l1 f4 [256, 64]
00000000: 47fd 37bd b81f 93bd 6ff0 c03d 014b e8ba
00000010: fb9b d9bb 6747 20bd 05c2 1a3d 0559 82bd
00000020: 145a a83d c179 5038 da45 c43d 11bd 81bd
00000030: 30c1 ff3c 021c e1bd 7900 8a3d afe4 b73d
00000040: 6c2b ab3d d2ae a83c 6b3c 59bc 9219 943d
00000050: 60a4 593b 5802 f9bc 18be cb3d f137 a7bd
00000060: 7c99 203d 60d0 703d a782 0ebe 488f aabd
00000070: 40bb 643d 1f20 49bc d8d6 a83c 1cf7 ce3d
00000080: bee7 163b c961 44bd 625a b1bd 5fa2 f2bc
00000090: 251f 5dbd 72c4 ef3c 7908 c53d 5bdc 0bbd
000000a0: bc36 ffbc 42f0 a13d 05b2 e4bd 7d29 babd
000000b0: 51b3 a53d e1c5 f23d d622 97bd 698f 7f3d
000000c0: 1fee 9ebd cc1d cfbd 9da1 acbd f24e b43d
000000d0: 522f b73d abc6 fb3d 50b2 f83c b8cf d03d
000000e0: 16dd 593d 60dd a9bc 131b bbbb 5ba3 96bd
000000f0: 83f9 a7bd 116e eebc 429a 71bd 954f e33d
00000100: 9378 f8bd ae1d d2bc 6ab6 81bd 1f51 1c3d
00000110: 789e 8d3d 93d1 87bd bdb5 bcbd 7a43 7fbd
00000120: 9b44 65bd ce2c acbd 0887 893c 57aa aabd
00000130: 5443 14bd 003f 623d 056a c5bd fb01 c03d
00000140: 0fd7 a33d c894 6cbd fedf e23d 6ea3 2a3c
00000150: ad69 e5bd 2d2f f53d d4ce 51bd 4f20 abbd
00000160: c825 c23d a095 f43d 1993 9dbd fc8d 953d
00000170: 979e b13b 36c3 73bd 91a6 39bd 1dab 043d
00000180: 4232 1438 5970 eb3d e6cf b5bc 6dc9 fbbc
00000190: 6568 82bd 60e1 e2bc 36cd 0a3e b190 e8bc
000001a0: 3551 a53c 8ee2 8ebd 8d9d 45bd faa9 aabc
000001b0: 7be9 a2bd 8a56 0d3d 7619 043d 3efe 023d
000001c0: 3264 9fbd 03b3 bc3d 6b42 e33d 8c4e 053d
000001d0: cc95 cebd be30 06be 0056 eb3c bbac a33d
000001e0: 37c6 ca3d 8bc3 993c ca4b c1bc 562d 253d
000001f0: cbc9 993d ac2d 383d 47b9 7cbd 1761 dabd
00000200: 9b93 b33d ded2 723d 57b7 cbbd fbc0 e8bd
00000210: 9310 0bbe e294 81bb 559a b53c 4965 ab3c
00000220: 192a d7bb 19bd 9d3d 64a2 18bd 7082 d2bd
00000230: 74fa e8bd 1c9c 07be bdd0 fb3d 2482 bdbd
00000240: 2e9e b73d 7ca9 0dbd 47b7 1bbc 067a 9ebd
00000250: f4a2 2fbd 7f0a b1bc 4b0b 713a 9719 043d
00000260: a8a3 7dbc 1f06 bb3d 57e2 a0bd d4a7 6b3d
00000270: 02c4 dcbd 14fc bf3d e4ad 8fbb 1006 d7bc
00000280: 127e ae3d bdb4 443d 3876 acbc 16c4 fc3c
00000290: e7d8 dd3c 0b60 583c ff40 0e3e 839d b43d
000002a0: 12bf 113e 96a3 023e 97f3 96bd 2ed5 d03d
000002b0: 81b5 02bc 035c af3c a8d0 943d 7958 c93d
000002c0: 6aba 2ebd 3106 a3bd 5ebb 703c 0407 513b
000002d0: d32a b0bd 9b3c bd3d 7f4f fbbc 4f9d 383d
000002e0: b447 38bd 169f e33c 67a2 ac3d 291e 30bd
000002f0: 67b7 ddbc 5721 0a3e 2b2f da3c e4a7 a13d
00000300: 7094 99bd c91e 6fbd 6abb c63c 2756 f0bc
00000310: bc9d 5dbd a675 4fbb 06d0 cdbd d8c9 a6bd
00000320: 2358 0ebe 8a38 a3bd 5ab1 30bd 4200 813d
00000330: 150b d9bd 0ea8 d53c 105e cc3d 78cc d53c
00000340: aee7 803d c6ef fb3c 5e2a 013c 22c8 d4bd
00000350: 4511 c73c 599e 42bd 6c2b 89bd 38de 2f3d
00000360: b515 b13d 801a ccbd 9f4b 913d 331f 813d
00000370: 7868 c73d 4bee 473d ee20 fd3c 4767 1c3d
00000380: ee9f 9f3b 8d58 5fbd 7673 a2bb 3d67 d8bd
00000390: b211 c53d 3857 4dbd eedb bcbd 72c9 8cbc
000003a0: 1221 f73d d501 98bd e702 6f3d 8d3b 89bd
000003b0: 6420 a4bd b398 bebd 9b5b 4dbd 2943 e4bd
000003c0: dc60 953d 8f98 e23d 4174 013e 039f dfbc
000003d0: 2eb1 e53c 37ec 88bd ce08 cd3c aa8a 953c
000003e0: 74b1 163d eba7 c2bd a5a1 603d e957 093e
000003f0: c4e0 e3bc 15e5 bb3d c99b fbbd 69d1 5b3c
-0.04491928 -0.07183784 0.09420859 -0.0017722548 -0.006640909 -0.039130595 0.037782688 -0.063646354
0.08220306 4.9704457e-05 0.09583636 -0.0633489 0.031220049 -0.1099167 0.067383714 0.08979165
0.083578914 0.020591173 -0.013259034 0.0723144 0.0033209547 -0.030396625 0.09948367 -0.08164967
0.039208874 0.058792472 -0.13917027 -0.0832811 0.055842638 -0.012275725 0.020610258 0.10105726
0.0023026313 -0.047944818 -0.08659817 -0.02961844 -0.05398478 0.029268477 0.09620757 -0.034145694
-0.03115403 0.07907154 -0.11166767 -0.090899445 0.080908425 0.11854149 -0.07379691 0.062392626
-0.07760262 -0.10113105 -0.08429263 0.0880412 0.089445725 0.12293752 0.030358464 0.10195869
0.05318936 -0.020735443 -0.0057100146 -0.07355376 -0.082018875 -0.029105218 -0.058985002 0.110991634
-0.12132373 -0.025648918 -0.06333621 0.0381633 0.06914991 -0.0663177 -0.09214351 -0.06232021
-0.05597363 -0.08406983 0.01678802 -0.08333271 -0.03619702 0.055235863 -0.09639362 0.09375378
0.080000035 -0.057759076 0.11077879 0.010414941 -0.11201797 0.11971889 -0.051222637 -0.08355772
0.094798625 0.11942601 -0.07694072 0.07302472 0.0054205167 -0.05951234 -0.045324866 0.03238975
3.5332756e-05 0.11496038 -0.02219386 -0.030735696 -0.06367568 -0.027695358 0.13554844 -0.028389307
0.020180324 -0.069768056 -0.048245955 -0.020833004 -0.07954689 0.03450636 0.032250844 0.031980745
-0.077827826 0.09213831 0.110966526 0.03254561 -0.10087165 -0.13104531 0.028727531 0.0799193
0.09901088 0.01877 -0.02359571 0.04032644 0.07509192 0.04496543 -0.06170013 -0.1066305
0.08768388 0.05928313 -0.09947079 -0.11364933 -0.13580541 -0.003954516 0.022168318 0.02092232
-0.0065662977 0.07702083 -0.037264243 -0.10278785 -0.11375895 -0.13243145 0.12295673 -0.09253338
0.08965717 -0.03458546 -0.009504146 -0.07738118 -0.042880014 -0.02161145 0.0009195103 0.032250967
-0.015480913 0.09132027 -0.07855671 0.0575331 -0.10779573 0.09374252 -0.004384743 -0.026248008
0.0852014 0.048023928 -0.021052465 0.03085522 0.027080966 0.013206492 0.13891982 0.088191055
0.14233044 0.12757716 -0.0737068 0.10196911 -0.007977844 0.02140618 0.072663605 0.09831328
-0.042658247 -0.07960165 0.014693109 0.003189505 -0.08601918 0.09240075 -0.030677555 0.045071896
-0.044990256 0.027785819 0.08429413 -0.042997513 -0.027064992 0.1348928 0.02663382 0.07893351
-0.07499015 -0.05837897 0.024259288 -0.029337956 -0.054105505 -0.0031655817 -0.10049443 -0.081439674
-0.13900809 -0.07969768 -0.043137886 0.06298877 -0.10597817 0.026081111 0.099788785 0.026098475
0.062941894 0.030753981 0.007883636 -0.10389735 0.024300227 -0.047514293 -0.06697735 0.042936534
0.086467184 -0.09965992 0.07094502 0.06304779 0.09736723 0.04881124 0.030899491 0.03818443
0.00487136 -0.054527808 -0.0049576117 -0.10566566 0.09622516 -0.050132006 -0.09221636 -0.0171859
0.120668545 -0.074222244 0.058352377 -0.067008115 -0.080139905 -0.09306469 -0.05013619 -0.11145622
0.07293865 0.110642545 0.12642004 -0.027297502 0.028038587 -0.066856794 0.025028612 0.018254597
0.036790326 -0.09504684 0.054841656 0.13412441 -0.027817138 0.09174553 -0.12285573 0.0134166265

lstm.bias_ih_l1 f4 [256]
00000000: b1e0 213d b496 c63d 6734 a7bc ee76 16bd
00000010: 519a a43d 1cc7 df3c 8141 343d 75b7 ecbc
00000020: cd03 30bd 3ef5 803d abf6 89bd 2bce 403d
00000030: ad2e 2e3c f310 c0b9 55ec cbbb 4ca8 bdbd
00000040: 49c5 10bd fd87 9c3c fe1b 633d bb05 acbd
00000050: 99be 383d 3ad2 cbbd 0f85 dc3c 49ae 69bb
00000060: 86a4 003d 2943 ad3d 3d3e db3c dc41 e6bc
00000070: 6b2e 8f3d 4bc9 2e3d c37a 8dbd 60e9 693c
00000080: 8260 d0bd 423e 893d 818d b13c be55 623d
00000090: 761f 093d a167 9fbc 4aca c83d ae2e 1bbd
000000a0: 024d 963c c6f9 f83d 2161 abbc 58b5 e339
000000b0: e6f6 d2bd 0be8 9abd ad3e 8fbd 6313 f33d
000000c0: 97d7 093e e1be 05bc 8d2f 17bc 4124 803d
000000d0: cc81 5fbd 9914 e33c db3c 573d 79e2 42bc
000000e0: eaf4 b3bd 2cbb f7bc 0d06 b23d 899a febd
000000f0: acb3 4bbd 888b e5bd 56f2 933d 899a eabd
00000100: f408 70bd f381 8ebd d502 543c 5a2a 9ebd
00000110: f6fe f7bd 8fb9 923b eeeb 323d 0f5a 2a3d
00000120: 6ef2 8dbd d6a1 4a3d 7f16 c83d 1d9e 8f3d
00000130: 421b c63d 5967 0e3e d68d df3c 3ad3 8fbd
00000140: 9c99 2ebd dad5 edbd 2f60 963c 28a1 60bd
00000150: 08de a13d 761a c0bd ca6d 8ebc 45a6 cf3d
00000160: 56be e2bd 8dbe 24bd ffa7 4dbd 8723 9abd
00000170: 3a4c aa3b ecd3 cd3d bddf adbc 5ef5 4cbc
00000180: 76be 71bd f414 91bd d446 4abd df93 5fbd
00000190: d6ea dbbd c5c2 613d 3763 debd aa02 1abd
000001a0: b917 fa3d d6d1 74bc 5619 c33d c840 c8bc
000001b0: 9816 febc 8396 a8bd 6c8b 843d faeb 6d3d
000001c0: f491 963d 60cb 953c 2d96 b43d 0bba 13bd
000001d0: 68c5 bbbd 2c19 b4bd 3cb1 973c add3 43bc
000001e0: 3841 3abd 5cb7 0abe a8cf bb3d e72a 7b3b
000001f0: 71b9 d0bd 5ec2 b73d bebc 43bc 9620 08be
00000200: 55ba ba3d 710c 1dbd 5e83 99bd de1a 0cbd
00000210: 952f 673d f513 b9bd 61f7 d03d 9a2b e53d
00000220: b034 b13c 4d37 0fbd 46fe a6bd 10a9 7a3d
00000230: 698f be3d 3ead 08bd 1097 6ebc 9939 c43d
00000240: 244f 6c3d 9691 9c3c acda 153d decc 1ebd
00000250: 3419 45bc ab39 ce3b 3d4d b4bc 6e3a a43d
00000260: 019b 64bd 2063 72bd 8c3d 6abd a089 9d3d
00000270: 7dce 043e 09be 90bd 9655 dfbd 6bed 6dbd
00000280: bfa6 bcbd 9195 fcbd 21a4 033e 79b3 51bd
00000290: 925c f7bd 64d0 ef3b de60 e5bd 1f3c cc3d
000002a0: 1efd 3abd f256 3c3d 1956 d1bc e3eb c4bc
000002b0: f708 35bc d3e2 93bd b8b0 2f3d f3d2 2e3d
000002c0: 2dde 4a3d 25fe 8cbd d945 df3d 344f cabd
000002d0: d721 113d 1dc5 b43d 3d5d fbbd 2c41 9bbd
000002e0: 146d b0bd f3ef c53d 6fca a4bd ddb6 b8bc
000002f0: 8e47 c23d 6676 93bd 0883 efbc d80c 5abd
00000300: 4ffe f5bc c32f d3bd 3170 29bc 7586 ae3d
00000310: 78c6 773d 1efd e03d 0f7a 413d f50a e33d
00000320: 2671 b83d 4657 613d 9171 a73d 6316 b73d
00000330: 7f38 85bd 990b 313d f40c bd3d 8205 603d
00000340: 1b78 c9bd 50c5 09be 25d9 bb3c 9fee a4bd
00000350: 0c31 f43d 4f3a f03d 4824 bc3b 92cb 063b
00000360: bfd5 b93d f412 fbbd 27a0 8a3d 246a 023c
00000370: 0590 edbc 119b b9bc 2407 16bc 19a0 bd3d
00000380: d46c 963d b81e 26bc f43f ea3c 84bf 98bd
00000390: 04d5 ffbd 727c 453d 3713 9d3d 7cb0 0ebd
000003a0: 6bb5 bc3d 08cc ee3d 980f 963d adb9 c6bd
000003b0: cd59 173d 2aac 8f3c b485 cd3c 1c56 bdbb
000003c0: 1dbf ce3d 5057 053e fb25 a33d 21c0 ce3d
000003d0: 7123 b4bd b8bf 2cbc 8536 55bd a96c 493d
000003e0: 158f 423c 6a79 15bd 22cf 99bd 12cd aa3c
000003f0: 991c 9cbc c68b fa3c 93a2 e13c 126d 9ebd
0.039520923 0.09696713 -0.02041073 -0.036734514 0.08037246 0.027316622 0.044007782 -0.028896073
-0.042972375 0.06296776 -0.06736501 0.047071617 0.010631246 -0.00036633722 -0.0062232413 -0.09260616
-0.035344396 0.019107813 0.055446617 -0.083995305 0.045103643 -0.09952207 0.026918916 -0.003565686
0.0314069 0.084600754 0.026763076 -0.028107576 0.069912754 0.042672437 -0.069081806 0.014276832
-0.101746574 0.06701328 0.02167392 0.05525755 0.03347727 -0.019458594 0.098042086 -0.037886314
0.018347267 0.121570155 -0.020920338 0.00043431926 -0.103009984 -0.0756379 -0.06994376 0.11868932
0.13461147 -0.008163185 -0.009227646 0.06256915 -0.054567143 0.027719783 0.05254827 -0.011894816
-0.08786948 -0.030240618 0.0869256 -0.12431819 -0.049731895 -0.11208254 0.07223956 -0.114552565
-0.05860229 -0.069583796 0.012940128 -0.07722922 -0.12109177 0.0044776867 0.04368203 0.041589793
-0.069310054 0.049470745 0.09769916 0.070125796 0.09673168 0.13906612 0.027289312 -0.0702271
-0.042626962 -0.116130546 0.01835641 -0.05484119 0.07903677 -0.09380047 -0.017386336 0.10139135
-0.1107146 -0.040220786 -0.05020904 -0.075263076 0.005197075 0.100501865 -0.02122485 -0.012509672
-0.05901953 -0.070840746 -0.049383953 -0.05458438 -0.10738151 0.055117387 -0.108587675 -0.037600197
0.12211556 -0.014942607 0.09526317 -0.024444953 -0.031016633 -0.08231833 0.06471905 0.058086373
0.07352057 0.018285453 0.08817706 -0.036066096 -0.09168512 -0.08793864 0.01851713 -0.011952323
-0.045472354 -0.13546509 0.09170467 0.0038325132 -0.1019162 0.089726195 -0.011946855 -0.1329368
0.09117571 -0.038341943 -0.074957594 -0.03420531 0.056441862 -0.090370096 0.10203434 0.11189957
0.021631569 -0.03496485 -0.081539676 0.061196387 0.09304697 -0.03336834 -0.014562383 0.095812984
0.057692662 0.01911239 0.036585495 -0.038769595 -0.012029935 0.0062934957 -0.022009486 0.08018957
-0.055811886 -0.059176564 -0.057187602 0.076922655 0.12969394 -0.07067496 -0.10904996 -0.058087748
-0.09211492 -0.12333215 0.12855579 -0.05119655 -0.12078203 0.0073185433 -0.112001166 0.09972405
-0.045651548 0.045981355 -0.02555375 -0.02403826 -0.011049501 -0.07220998 0.04289314 0.042681646
0.04952829 -0.06884412 0.10901994 -0.09878388 0.035432663 0.08826659 -0.12273643 -0.0758079
-0.08614555 0.09664907 -0.08046424 -0.022548134 0.09486304 -0.07200317 -0.029237285 -0.053234905
-0.03002849 -0.10311844 -0.01034169 0.085217394 0.06049201 0.10985778 0.047235545 0.11086074
0.09005956 0.05501487 0.08175958 0.08939817 -0.065049164 0.04322395 0.09230986 0.054692753
-0.098373614 -0.13454175 0.022930691 -0.08053326 0.119234174 0.117298715 0.0057416297 0.0020568115
0.09073972 -0.122594744 0.06768828 0.007959876 -0.028999338 -0.02265695 -0.009156976 0.09259052
0.07344976 -0.01013916 0.028594948 -0.07458404 -0.124918014 0.048214383 0.076696806 -0.034836277
0.0921429 0.116600096 0.07327193 -0.097033836 0.036950875 0.017538149 0.025088169 -0.0057780873
0.10095046 0.13021588 0.079662286 0.100952394 -0.087958224 -0.010543756 -0.052053947 0.049175892
0.011874934 -0.036492743 -0.075102106 0.020849738 -0.019056605 0.030584227 0.027543342 -0.07735647
