time_series_forecasting_py/lstm_stock_model.pth (torch, 205750 bytes, 9 tensors)

lstm.weight_ih_l0 f4 [256, 1]
00000000: 0b2f 72bd 8b28 3c3d 4751 123e 1242 873d
00000010: 50b0 823d f4e7 20bd 3a13 acbd ecf3 7dbd
00000020: 3d42 073e 4389 b93c 9286 24bd 7e35 80bd
00000030: 33ba 893d e524 c8bc 9262 8b3d aa74 ce3d
00000040: cd95 89bc d016 a83d bb5c 96bd 05dd 6e3d
00000050: 3f49 85bd 3201 62bd 0d80 32bd 939c 193e
00000060: 7708 28bd a188 43bc aad9 e33d 6cfa 8bbd
00000070: 6523 9fbd eb17 88bd 7a15 d23c a2d5 98bd
00000080: 746c 69bc 761c 51bd 0a44 f0bd a511 a33d
00000090: 4225 c33d 49f0 103e 3890 a9bd 3e27 253d
000000a0: 81f9 acbd b210 f23d 5134 7dbd 0cc5 953d
000000b0: 5b99 82bc 46c2 a13d 23fd ad3c 584b 483d
000000c0: 681e 74bd 66b5 4cbd dcb9 9d3d 40e8 e8bc
000000d0: f9ac 4f3c b35f ab3c 97e3 123d 0e9a 6c3c
000000e0: 9375 1f3e b41e 363e dc29 663b 0436 9f3d
000000f0: 258c 873b 13b8 8c3d 9381 613d 726b 8fbc
00000100: f9a1 23bd f287 113e a78a 183e 39f9 e6bc
00000110: 4d89 72bd fe7b 4c3d d05f 523d e202 5bbc
00000120: 7456 68bd 0669 f43d a483 13bd 7d7c e93c
00000130: 19b2 943c 1cf9 963d 67df 89bd 4f36 63bd
00000140: 6d9b f03d aec1 e13d 823f f3bc f658 3c3d
00000150: e132 cbbd 0bcd 17bd 8073 693d ea81 373d
00000160: b796 163e 8c37 803d 0340 843a 5c40 6d3d
00000170: 524b 25bd f3a1 963c 2c2c c5bd 723f 5dbd
00000180: af90 ecbd cb73 7f3d 692d 1abe 05c6 ab3c
00000190: 80dc 0d3e a0fb 863d 0c0d e1bc 454e 1b3d
000001a0: fe23 ae3c d4e6 95bd 92d3 02be a9fe 98bd
000001b0: 7678 343d 92cd 0b3e d216 8c3c a57e 113d
000001c0: f91c 113e 69e8 f53d 3cb1 a4bd 397f e5bc
000001d0: efe8 b83d 5df1 a8bd 1ce4 c2bd a05e 2abd
000001e0: 096f fb3d ecad c6bc 468d 513d 5914 133c
000001f0: 19c1 cd3d b1d7 01be d3e6 833d ad67 0dbe
00000200: bf75 b53d 5de5 5b3d 21c6 97bd 003a cabd
00000210: 9604 cfbd 9c53 57bd b5c1 17be d5f7 bdbc
00000220: d806 9dbb 2945 f23c 9b8b d5bd 521c d5bd
00000230: 2929 98bc e1bd f3bd 8bfd 683c 21f8 de3d
00000240: 9b4f 173e cba7 06be 7a01 4fbd 86fa 923d
00000250: a701 f0bb f623 7b3d 40f0 d53d e6c2 14be
00000260: f172 7abd d636 f23c 5d2e 9c3d 3408 0c3e
00000270: f64e 1f3e 5d45 2b3d 7d68 a63d 8683 5c3d
00000280: 598f 06be f706 f03c 254f 84bd eb4a 203e
00000290: b96c e0bd d3b0 08be f61a a7bc 7da7 88bd
000002a0: 774d d5bd e03a 8a3d f7dc bbbd b0d8 abbd
000002b0: f415 ec3c 1642 1dbd a108 d13d d0f7 4e3d
000002c0: ead6 fa3d 51e7 b83c 25ce 93bd 4292 c8bd
000002d0: 13eb fd3d 1223 b33a cbf7 a0bd ac1d eb3d
000002e0: 4bdf 38bd 6b8b 0b3e ab15 23bd e8e4 ee3d
000002f0: 2c5f 173e dcdf c4bb 035e ce3d 9cc5 9a3d
00000300: e65c ec3d 07a9 193e 8228 f63c 5828 8ebd
00000310: 3057 f9bc 0e3e 763d 4de6 fdbc b973 06be
00000320: 0500 b53d dcb1 61bd db7f c93d 0388 573c
00000330: e8f0 d53c 94a6 d2bc 858f e8bd 66b9 983c
00000340: e666 ff3d 6d4b ac3d f9ea e43c a5aa fdbd
00000350: 22fa 8dbd 4992 663c 8a19 be3d 4b81 c83d
00000360: 942f d53c 23d2 033e f860 8ebc 6e35 953d
00000370: 0241 fe3d ec6f 893c 7586 d0bc 0d5e b2bd
00000380: 8104 83bd d525 a13d 8e5d 1bbe 89ee 0b3e
00000390: 4c35 483c 4cfe b33d e72e 8f3d 7077 473d
000003a0: 43bc ecbc ad99 dfbd 2b09 ab3d 78ab 99bb
000003b0: d8b5 683d 7a72 acbd d452 e83c 024c 9d3d
000003c0: 93c6 4fbd 6df9 72bd 020a a5bd e11a dbbc
000003d0: 4689 40bd 65ea 82bc 54d2 e23d a821 87bd
000003e0: daf4 093e cfaf e83d 0e1f e13d 6e70 333d
000003f0: 3e17 08bc 1c17 7c3c 5547 9abd 7096 353d
-0.059126895 0.045937102 0.14288817 0.06604399 0.06381285 -0.039283708 -0.08402105 -0.0620002
0.13208862 0.02264846 -0.0401674 -0.06260203 0.06724968 -0.024431655 0.0680591 0.10080846
-0.016795063 0.08207476 -0.07341906 0.05831625 -0.06508111 -0.05517692 -0.04357915 0.15001135
-0.041023698 -0.01193443 0.111255005 -0.068348736 -0.07770423 -0.06645187 0.025645006 -0.07462622
-0.014247049 -0.051052533 -0.117317274 0.0796235 0.09528591 0.14154162 -0.08279461 0.040320627
-0.084460266 0.11819591 -0.06181747 0.07312974 -0.015942266 0.07898383 0.021238869 0.04889998
-0.05959931 -0.049977683 0.077014655 -0.028431058 0.012675517 0.020919656 0.035861578 0.014441026
0.15572195 0.1778515 0.0035120165 0.077739745 0.0041365796 0.06871047 0.055055212 -0.017507289
-0.03994939 0.14212015 0.14896642 -0.02819501 -0.05921297 0.049922936 0.051360905 -0.013367387
-0.056723073 0.11934094 -0.036014214 0.028501743 0.01815133 0.073717326 -0.06732064 -0.055471715
0.11748395 0.110232696 -0.029693369 0.045983277 -0.09921814 -0.03706078 0.056994915 0.04480163
0.1470593 0.06260595 0.0010089878 0.057922706 -0.040355034 0.01838777 -0.09627566 -0.054015584
-0.11551034 0.06236629 -0.15056385 0.020968447 0.13853645 0.065909624 -0.027472042 0.03791644
0.021257397 -0.073194176 -0.1277602 -0.074704476 0.044060193 0.13652638 0.017100725 0.03552117
0.14171208 0.12007219 -0.08041617 -0.028014766 0.090288036 -0.082491614 -0.09516165 -0.041594148
0.12277038 -0.024252854 0.05116012 0.008977019 0.10046596 -0.12679936 0.064405106 -0.1380908
0.08860349 0.053685535 -0.07410837 -0.09874344 -0.101082966 -0.05256997 -0.14819987 -0.023189465
-0.0047920756 0.029573994 -0.10427018 -0.10405792 -0.018574314 -0.11901451 0.014220606 0.108871706
0.14776461 -0.13149945 -0.050538518 0.0717669 -0.0073244157 0.061313592 0.10446215 -0.14527473
-0.061144773 0.029567163 0.076260306 0.13675004 0.15557465 0.041814197 0.08125398 0.053836368
-0.1314062 0.029300196 -0.06460408 0.15653579 -0.10958237 -0.13348703 -0.020398598 -0.06672571
-0.10415166 0.06749511 -0.09173005 -0.08390939 0.028819062 -0.038393103 0.10206724 0.0505293
0.12248023 0.022571238 -0.07217053 -0.097935215 0.123983525 0.0013667068 -0.07859763 0.11480269
-0.045134824 0.13627402 -0.039815586 0.11664754 0.14782399 -0.0060081314 0.10076525 0.07557222
0.115411565 0.15005885 0.030048613 -0.06941289 -0.030437082 0.060117774 -0.030993605 -0.13130082
0.08837894 -0.05510126 0.098388396 0.013154986 0.02611585 -0.025714196 -0.11355499 0.018643092
0.12470798 0.08412824 0.027944075 -0.123860635 -0.06932475 0.014072963 0.09282215 0.09790286
0.026023664 0.1287313 -0.017380223 0.072855815 0.12414743 0.016777001 -0.02545474 -0.08709345
-0.063973434 0.07868544 -0.15172407 0.13665213 0.012219738 0.08788738 0.06991368 0.04869789
-0.028898364 -0.10917983 0.08351358 -0.00468963 0.056814045 -0.08420272 0.028359808 0.07680513
-0.050726485 -0.059319902 -0.080585495 -0.026746215 -0.047005914 -0.015980909 0.11075273 -0.06598216
0.1347231 0.11361658 0.10992251 0.043808393 -0.008306323 0.015386369 -0.07533137 0.04433292

lstm.weight_hh_l0 f4 [256, 64]
00000000: cc91 013e a1ba d6bd 7e2b 963d 3833 a0bb
00000010: a21c dcbd 7321 4e3d 4236 febd c46a db3d
00000020: 62bc 4abb 2b11 a13d a4cc 18bc d11f 523c
00000030: 7e8e a93d 7738 5a3d 3787 8f3d 57a0 043e
00000040: 3861 95bd e178 95bd a1a8 813d 7949 363d
00000050: c18b 59bc 8d3c ec3d 30cd f1bd 239c 0bbe
00000060: cfc1 2b3c 8515 753d 2a8f 80bd bd48 423d
00000070: c13b c23d f875 15bd 71ec 063d 189e a23d
00000080: b4e4 03be 23d3 92bd 5134 a93d 5ada 083e
00000090: 3316 ecbd 5296 22bd 691d a8bb 8f44 8dbd
000000a0: 5cf0 cf3d 7cdc 003e 84a3 e03d 3650 763b
000000b0: e4a2 f73c 2186 9a3d fdc0 883d 6562 bebd
000000c0: 449e 95bd 3854 fcbc 3ee8 e1bd 52b8 2dbd
000000d0: cccc 993d c531 bf3d 54c3 003e f71a c63d
000000e0: 7c25 0ebe d2f2 1c3d 7dc7 fabc 954f 163e
000000f0: 84d5 523c 1fcb 76bd f803 cc3d e583 abbd
00000100: b502 1abd 9649 9bbd 2322 8fbd 0a85 273d
00000110: 10af 94bd 83c6 903d bc87 16bd 47d8 c83d
00000120: 5520 473d d550 863d 4da8 03bd a9d1 563d
00000130: 1785 47bd 2883 27bb e023 0abd 4c83 94bd
00000140: ee99 0f3e 11a4 96bd 38df ddbd 5f32 533d
00000150: d667 e6bb 37f1 af3c 1e55 133d dd06 3e3c
00000160: 25e7 d63d f256 6fbd 74d9 943b 387c d43d
00000170: b900 cbbd 3e6a 88bd 2624 263c 9c00 dabd
00000180: a1e2 bebd 2d2f e5bc 2910 c6bc f9b4 af3c
00000190: 315c 96bc b7a9 95bc 3069 d63d 19a9 d03d
000001a0: 8de6 eebd 41b6 0b3c 2d8e d3bd bdbe 46bd
000001b0: c544 ae3d 96af 91bd 1b58 a03c 1b69 6a3d
000001c0: 8bac dc3d 70a1 a03d 7439 8bbd 7396 b43d
000001d0: 11e4 ee3d 1fa2 eabd faf1 bfbd 0d6c ac3c
000001e0: 6b94 b93c 299b 44bd 604a c1bc eb30 bebd
000001f0: 677f b5bd f6ae d13d 71dc 1cbd 7c19 00be
00000200: e1b1 8abc 8455 2fbd f7c1 423d 7f05 9abd
00000210: 4f10 6ebd 25a2 1b3c 148d 61bd 77bf a8bd
00000220: 809b b93d f32d 21bc 106f 01be f4b6 643d
00000230: 054c 7fbd a59b 8fbd 5793 13bd 07fd 583d
00000240: fa77 663b d80c 5f3d 1c0c d1bd 5136 dbbd
00000250: e16c b7bd 8086 2bbd 9584 ce3d 9743 dbbd
00000260: 23e5 ad3b fdbd 8dbd e8b7 09bd 5f09 d13d
00000270: d89a d13d b3f6 5cbd cfc9 fa3c 1692 f73d
00000280: d1d2 a9bc 5fbe 983d f1ff 073e 62ec b73d
00000290: 03a2 193d d6cd 973d fb76 e7bd cb69 00be
000002a0: 401e ffba 661b b8bd a01f 9f3c f680 cbbd
000002b0: 6b82 da3d 14da f5bd cbf0 003c 61de 2dbd
000002c0: 53f6 e2ba 67f8 8c3c b58e 0c3e fd8f 133d
000002d0: 9149 f3bc 239c af3b 6b92 d23d 78c6 3abc
000002e0: bd8c 1dbd d6e4 ed3d a16b 5abd 953a 4d3c
000002f0: 0839 8c3b e128 2cbd 49d5 12bd d8ae ce3d
00000300: 7ced a2bd 1dd6 7d3d dbb2 883d 55bb bf3d
00000310: c3b7 23bd 2d5c eebc eca7 dcbd 5eec 9fbd
00000320: 22e2 d6bd 2fa4 a9bb 7f8a cbbc c378 03be
00000330: 106b e33d 89b2 723c df5a 6bbe f107 b13c
00000340: 2d61 ce3d f070 9f3d 42f0 9ebd 6552 99be
00000350: 1bab e8bc b2d2 38bc aa2a 8abd b448 73bb
00000360: f801 ae3d ae31 7abd 25bf 293e 6556 32bd
00000370: 5680 223e 38e2 c93d 4e17 21be 58c2 d63b
00000380: d425 8f3e 02b1 9fbd 4478 1c3e 32c9 013e
00000390: 0397 0d3d 54c1 d6bd f4a9 42bd 5a11 15be
000003a0: eae9 e8bd b611 5fbd 0089 d53d 97ca 363d
000003b0: b7a2 9d3d 4919 303d 3d30 47bd 45bc e7bd
000003c0: 3f82 e7bd 9bdd f13d 1785 f23d 730c 563e
000003d0: 7c1e 403d 6d12 39bc 7b5b 3d3e 2047 7ebd
000003e0: 3a8c 0e3a 0cb2 44bd 8391 963d 68fc 46be
000003f0: bc5e 3ebe 2b73 d43d db1c 33be bc76 28be
0.12653273 -0.104848154 0.07332514 -0.0048889183 -0.10747649 0.05032487 -0.124126926 0.10713723
-0.0030935039 0.07864603 -0.009326134 0.012824968 0.08279131 0.053276505 0.07008212 0.1295179
-0.07293934 -0.072984464 0.063309915 0.044503663 -0.013277949 0.11534987 -0.118067145 -0.1363378
0.010483219 0.059834976 -0.062773064 0.04743265 0.094840534 -0.036489457 0.03294033 0.0794031
-0.12880212 -0.071691774 0.08261932 0.13364545 -0.11527672 -0.039694138 -0.005130459 -0.06897842
0.10153267 0.12584108 0.10968688 0.003758443 0.03022904 0.07545114 0.066774346 -0.09296111
-0.073055774 -0.030801877 -0.11030625 -0.04241211 0.07509765 0.09335665 0.12574512 0.09673112
-0.13881487 0.03831751 -0.030612702 0.14678796 0.012868289 -0.060252305 0.099616945 -0.08374766
-0.037600238 -0.07582395 -0.06988933 0.04089836 -0.07259953 0.07069113 -0.03675054 0.09806877
0.04861482 0.06558386 -0.032142926 0.05244604 -0.04871091 -0.0025560353 -0.03372562 -0.072516054
0.14023563 -0.07355512 -0.10833591 0.05156171 -0.007031421 0.021477325 0.035969846 0.011598316
0.10493306 -0.058432527 0.004542524 0.10375255 -0.09912247 -0.06660889 0.010140454 -0.106446475
-0.0932057 -0.027976597 -0.024177628 0.0214486 -0.018354507 -0.018269403 0.10469282 0.10188503
-0.11665068 0.008527339 -0.10329852 -0.048521746 0.085092105 -0.071135685 0.019573262 0.057229143
0.107750975 0.07843292 -0.06798068 0.088177584 0.11664594 -0.114567034 -0.09372325 0.021047616
0.022653779 -0.047999535 -0.023595035 -0.09286674 -0.08862191 0.10238449 -0.038296167 -0.12509722
-0.016930522 -0.042806163 0.04754826 -0.075205795 -0.05812102 0.0094991075 -0.055066183 -0.08239644
0.090628624 -0.009837615 -0.12640023 0.05583854 -0.062328357 -0.07012109 -0.036029186 0.05297568
0.0035166726 0.054455608 -0.10207388 -0.107037194 -0.08956314 -0.041876316 0.10083882 -0.10706251
0.0053068562 -0.06921003 -0.033622652 0.102068655 0.10234612 -0.05394621 0.030613808 0.120884106
-0.020730408 0.074581854 0.13281228 0.08980633 0.037508022 0.07412307 -0.113019906 -0.12540357
-0.0019463971 -0.08989601 0.01942426 -0.09936707 0.106694065 -0.12004486 0.0078699095 -0.042448405
-0.0017315842 0.017208291 0.13726313 0.03602599 -0.029698165 0.005359189 0.10281833 -0.011399858
-0.038464297 0.116159126 -0.0533253 0.012526174 0.0042792596 -0.042031173 -0.035847936 0.100919425
-0.07955453 0.061971772 0.06674739 0.093619026 -0.03997017 -0.029096687 -0.10774216 -0.07808755
-0.1049235 -0.005177043 -0.024846314 -0.12839036 0.11104405 0.014813074 -0.22983883 0.021610232
0.100771286 0.07785213 -0.07760669 -0.29945675 -0.028401902 -0.011280702 -0.06746419 -0.0037122192
0.08496469 -0.061082534 0.16576822 -0.043539423 0.15869269 0.09857601 -0.15731546 0.0065539293
0.27958548 -0.077974334 0.15280253 0.12674406 0.034567844 -0.10486093 -0.04752536 -0.145574
-0.113727406 -0.05446025 0.10426521 0.0446268 0.07697051 0.042992864 -0.048629988 -0.113152064
-0.11304139 0.11809846 0.11841791 0.20903187 0.046904072 -0.011295897 0.18491928 -0.06207955
0.00054377655 -0.04802136 0.07351973 -0.19432223 -0.18590826 0.10373529 -0.17491476 -0.16451544

lstm.bias_ih_l0 f4 [256]
00000000: 92ad 623d e41a 1a3d e9db 363d 2563 363e
00000010: 7724 b83d 42b3 73bd 93c5 a0bc 6b68 5c3d
00000020: 16a6 e2bd 74d1 c8bd 0f54 813c 9e4e f13d
00000030: 0b45 d2bd fe98 acbc 6d05 d23c 913c dfbd
00000040: b02d 123e dbf2 c7bc 5b5e e1bd 3b64 3f3d
00000050: a39d 723d 4f62 3c3d 7bdc 3aba 77b0 f63c
00000060: b748 9b3d 3922 babd a2a8 583d 3ea4 f33d
00000070: 8ad8 a5bd 0892 aebb fda9 ce3d c9bf c63d
00000080: 87b5 8b3d 50f8 4f3b 84bf 17bd 0592 103e
00000090: 02cc 0a3e 4547 79bc 545b 07bd 3168 593d
000000a0: 2b80 9c3d 4207 02be 2e75 06be 775b e43d
000000b0: 210c b43d fd12 76bd 9463 6bbd 9fb1 da3d
000000c0: 6be4 40bd 0af0 c53d 7c16 493d 04e2 cbbd
000000d0: a234 bbbd 2e0a f6bc 69a7 d13a af19 053e
000000e0: 5de3 cdbc 2081 38bc 0e0f 99bd 02e0 603d
000000f0: dfda bfbd 99ce a13c b137 0ebd da0a 4fbd
00000100: 0efe 953d c70e a33d 2f35 cb3d 95ab 2f3e
00000110: 88b3 003e 4215 e23a f2b9 a03d 498d ebbd
00000120: c44f d53c be56 34bb 67f2 89bd c97a a0bd
00000130: 993d 8a3d 1462 853d 8fe4 823c 8723 b83c
00000140: 7b61 93bd ba74 bdbc 4a47 7cbd 2f47 ab3d
00000150: 4b9f 5b3d 3434 4ebd 1eb9 7a3d a128 073e
00000160: 509a 543c a160 d5bd 3f73 31bd e2f5 cfbd
00000170: 76ee e63d 9a2c d5bd 5630 fc3d acc7 c73c
00000180: eabf ec3d 569f d1bc d9dc ca3d 3a9b 053e
00000190: f17e 03bd f7a2 b6bd 7a85 10bc 0bb3 e13d
000001a0: f087 5bbd ce23 b13d f633 85bc 33a3 443d
000001b0: eaf7 e23d e868 99bd 0acb cb3d 8be5 b63d
000001c0: 18bd bb3c 8745 503d e748 3e3d 48a1 3cbd
000001d0: 8c0c c23d 3db6 783d 805c 7c3d da1e da3a
000001e0: c446 e03d 09d1 2f3e 14c1 a13d ba27 7abd
000001f0: 82c3 e43d 4b4a 9a3c 0651 99bb 9dd7 c8bb
00000200: 4e67 55bd 2be9 003d c158 6abd fea9 a13d
00000210: e44d 643d eccf 91bd 60fe a13d bf38 ce3b
00000220: 2aa8 6dbd 015d d73d 59bb 32bd a869 c1bd
00000230: 2ef0 9d3d 031c 793d 0596 30bd 5d6a 1abc
00000240: a2e3 3d3d d4b1 433b f1ce 8a3c 2b82 8ebd
00000250: dda9 87bc b8ef c0bd a0db 37bd c2a6 a2bc
00000260: 89f1 503d f873 b93d 2f04 f93d 496e 6b3d
00000270: 07b7 c93b 594e c73d 8bbd 99bd 1117 a4bd
00000280: 32f6 03bd 1074 b33d 41f9 be3d e2a3 dc3d
00000290: 426e 11bd 13b4 99bc ed1e 83bd c789 f0bd
000002a0: 1431 6ebc c75a e2bd b0a0 253d a857 64bd
000002b0: 3fb7 b83d 94a1 603d 8ebb 97bd 95b0 43bc
000002c0: d0fa 953d 6608 b43d e57d ca3d 0b06 4cbd
000002d0: 8b52 db3d 7adb 83bd 0260 6a3d dea3 d43d
000002e0: 627b 32bd c1d0 b8bd 9aed 03bd 7840 45bd
000002f0: 9df7 8ebd 5f36 9a3c 9bf4 6f3c 7ed5 cabd
00000300: fb27 13bd 7f36 09bd ee20 8fbd f421 1a3e
00000310: 5a6b ccbd 892a 2a3c b462 5cbd c052 1fbd
00000320: 83f1 313d f025 f63d 04a6 433d 7e2d b9bc
00000330: a716 74bd 5967 cfbd d9ae 8abd 7c98 1f3c
00000340: dd84 d83d 8b80 a3bd 4b3d 033e 7469 143e
00000350: d7fd 033e 6929 a03d 4176 bdbb 224d 18bd
00000360: 5b06 a23d 463a e83d aef9 c6bd e453 0a3e
00000370: b475 a5bd 3e68 62bd 23c4 21bd dd52 e73d
00000380: 5141 39bc 34f8 a33d f393 bebd 571a d93d
00000390: 1422 a0bd d7e7 a73d 678c 67bd b6bb 2e3d
000003a0: 8a7b b3bd 9088 983d 70c4 593d efa6 103e
000003b0: eead b1bd 27f8 d6bd cbc9 85bd ef84 4f3d
000003c0: 5cd5 3d3d 1861 ccbc e450 adbd 04c1 5fbc
000003d0: 6297 b5bc 4e21 463d e91b db3c 5245 e9ba
000003e0: 6649 093e 4e31 b83c 524f d53c bf1c c33d
000003f0: bb53 073d 6936 b1bd 3636 ba3d f8b0 ad3d
0.05534131 0.0376233 0.044643316 0.17811258 0.0899133 -0.059497125 -0.01962546 0.05381052
-0.11066835 -0.09805575 0.015787153 0.11782573 -0.10267075 -0.021069046 0.025637353 -0.10900224
0.14275241 -0.024407795 -0.11004325 0.046726447 0.059232365 0.045992192 -0.0007128191 0.030113442
0.07582229 -0.09088559 0.052895196 0.11896561 -0.08097942 -0.005327467 0.100910164 0.09704549
0.06821733 0.00317337 -0.037047878 0.14118202 0.13554385 -0.015214746 -0.03304608 0.05307788
0.076416336 -0.12698081 -0.13130638 0.11150258 0.08791376 -0.060076702 -0.057468012 0.1067841
-0.047092836 0.096649244 0.04909371 -0.099552184 -0.09140898 -0.03003415 0.0015995327 0.12998079
-0.02513283 -0.011261255 -0.074735746 0.05490113 -0.09367918 0.019751834 -0.03472108 -0.05054746
0.07323848 0.07961803 0.09922253 0.17155297 0.12568486 0.0017248767 0.07847966 -0.115015574
0.026039012 -0.0027517523 -0.06735688 -0.078359194 0.0675003 0.065128475 0.015978126 0.022477878
-0.07196327 -0.023126949 -0.061591424 0.083631866 0.05361871 -0.050342754 0.061211698 0.13199092
0.012976244 -0.10418821 -0.043322798 -0.1015432 0.112759516 -0.10408898 0.12313907 0.024387203
0.11560042 -0.025588673 0.099054046 0.13047495 -0.032103483 -0.08917802 -0.008820886 0.11020478
-0.053596437 0.08649407 -0.016260128 0.0480072 0.11082442 -0.074907124 0.09950836 0.089305006
0.022917315 0.050847556 0.046456244 -0.046052247 0.094750494 0.06072067 0.061611652 0.0016641275
0.109509975 0.17169584 0.07898155 -0.061073042 0.11170103 0.018834254 -0.004678848 -0.0061292187
-0.052100472 0.031472366 -0.05721355 0.078937516 0.055738345 -0.07119736 0.07909846 0.0062933858
-0.058021702 0.10515786 -0.0436357 -0.094439805 0.07711826 0.06081773 -0.04311182 -0.009424773
0.046359666 0.0029860632 0.01694438 -0.06958421 -0.01656049 -0.09420723 -0.044887185 -0.019854907
0.051011596 0.090553224 0.12159001 0.057478223 0.0061558518 0.097317405 -0.075068556 -0.08012212
-0.032217212 0.087623715 0.09324885 0.10773446 -0.03550554 -0.018762624 -0.06402383 -0.11745029
-0.014538068 -0.11052471 0.040436447 -0.055747658 0.090193264 0.054841593 -0.0740882 -0.011943956
0.07323229 0.087906644 0.09887294 -0.04981045 0.10709103 -0.06438346 0.057220466 0.10382818
-0.0435747 -0.09024192 -0.032209016 -0.048157185 -0.06980822 0.018824754 0.014645721 -0.09904002
-0.0359268 -0.033499237 -0.06988703 0.15052015 -0.09981413 0.010386118 -0.053805068 -0.038897276
0.043443214 0.12018955 0.047765747 -0.0226047 -0.059591915 -0.10127134 -0.06771631 0.009740945
0.10572217 -0.07983502 0.1281635 0.14493352 0.12889801 0.07820398 -0.005781919 -0.037182935
0.079113685 0.1133924 -0.09715591 0.13508564 -0.08079091 -0.055275194 -0.03949369 0.11295102
-0.011307077 0.08006325 -0.09305563 0.10600727 -0.07819 0.08198517 -0.056530382 0.042659484
-0.087637976 0.07447922 0.053165853 0.1412618 -0.086757526 -0.1049655 -0.065326296 0.050663885
0.046346053 -0.024948642 -0.08462694 -0.013656858 -0.022166912 0.048371606 0.026746707 -0.0017797148
0.13406906 0.022484448 0.0260388 0.09526967 0.033038836 -0.08652956 0.09092371 0.0848102

lstm.bias_hh_l0 f4 [256]
00000000: 26f9 14bd 5cb3 e83d 0701 fd3d ca15 3b3d
00000010: df9c 93bc 1b8d 00bd ffa4 3b3d b633 ec3c
00000020: ca0b bfbd 9a49 c63c 15ca b0bd 3336 013e
00000030: 94fc a63c b26d 8cbb 8fe8 e1bd 2cc7 6fbd
00000040: 4090 adbd ef7a 70bd dd6e ca3d 3064 7dbd
00000050: 0a54 c1bc 6030 35bc 0bcb 4a3d 60e7 5cbd
00000060: 81d5 ea3c be8e c5bc b611 2b3d 845e c5bd
00000070: 681a 8cbd 4646 eb3d 3ce5 2c3d bb19 be3d
00000080: e8f3 74bd 1f41 29bc 3f35 c2bd 1a16 0c3d
00000090: a11b c33b b9de a1bd ad87 01be c9d3 883d
000000a0: 89de 753b dcf7 e5bd 1ed8 c8bc fa4a afbb
000000b0: 931e 8bbd c78d 983d e38e a5bd 4f2f 0e3d
000000c0: 295f 05bd ac86 8b3d 6b4b e6ba 1239 bdbc
000000d0: a705 e9bc 74f2 043d a555 113d 2cda 4ebd
000000e0: 6467 d33c ee43 c43d 1da5 13bd 3aec db3d
000000f0: a16d c33b f5db 9ebc d7ee b5bd 5928 94bd
00000100: 91de bb3c c50e 373d e5bc f93d 4951 c63d
00000110: 4b77 59bc c4a1 f23a c820 8a3b e125 b9bd
00000120: 75d1 cebc 1808 453d 518c 2cbd 6376 ae3d
00000130: 2d3c 21bc 430c 963d e935 91bc a10c ed3d
00000140: 6caf 90bc 709d 9c3d 8401 c73d aa2b dfbc
00000150: b13c 52bd bbab bcbb 5902 f93c 74cb 9fbd
00000160: b987 d0bd 15e2 df3c edb4 e5bc 046c 1d3d
00000170: f67a c63d dc18 d23d 0050 78bd 9a9e 823c
00000180: ebc9 cf3d 03c8 23bd a1ef de3d e5c6 91bd
00000190: e30f 9b38 6b37 ddbd a79e 02be 7960 c1bd
000001a0: 4015 aa3d 0caa 1b3d b99c 80bd 1f16 2e3d
000001b0: caf2 a6bd 84d9 73bd 0a9f 2abd f902 03bc
000001c0: 9f10 073e dd94 5fbd b5c6 97ba d10d 9bbd
000001d0: 88ce f23d 93e6 4fbd 60ae eb3d 81b8 2dbc
000001e0: 644c d3bd fd1a 323d b066 a6bd 1d2c c03d
000001f0: 7b49 783d 6cc9 a7bc 8a21 d63d 5d80 da3d
00000200: 3cfe ac3d b24d fabc 77c3 783d 6476 2dbc
00000210: 12d8 013e 0213 d23d 240e d9bd 23d4 403d
00000220: 5f1a ecbc 890d 623d d3f5 c5bd 30e1 99bd
00000230: 1473 463c 9f6d 52bb 49d0 d83b 4b1d 02bc
00000240: 8adc c13c 7c98 d0bb b7b4 8fbd 8985 a23c
00000250: 809b eabd 378b 773d 4853 6ebd a9af 0fbc
00000260: e79f b9bd c4ea 89bd 1344 e83d cd13 67bd
00000270: 3a56 ec3d 1cb4 73bd 472b e8bd 5190 fc3d
00000280: 7f23 af3d 106d 90bd 311d cebc 44f4 a8bd
00000290: ff7d aabd 9a45 4bbd d439 2abd a45d 0dbd
000002a0: e9b7 88bd c900 bc3d 97f4 043d 89ae f43d
000002b0: 0f4a 673d 4270 b5bd 4a43 dcbd 1cd9 9b3c
000002c0: c424 a8bd 56cf ff3b 1589 a53d 83d5 8b3c
000002d0: a3c9 b9bd 0635 73bd bf2c e03d 9ff3 ef3d
000002e0: c3f4 8c3d f32e 6abb e241 18bd 5c00 5d3d
000002f0: 8701 9ebd dbb4 e23c 43bc 11bc 04d5 92bd
00000300: 7546 1e3d 4998 9a3d 41b5 103e 17a6 b73d
00000310: 9822 fcbd c88f a33d 01ed b63d e3c1 aebd
00000320: 2318 adbd c244 af3d 348e 44bd 7ec3 c23d
00000330: 9df9 0d3d fb05 c9bd 2fe7 76bd 2e69 3ebd
00000340: 7f2f 02bd bfd3 f23d 6bcc fd3d b39f 0fbc
00000350: 1f21 febc 71f6 38bd 7897 2bbd 22f3 1ebd
00000360: c9d7 e93d 6661 ef3d 98ad e23d 836f 4ebd
00000370: 4724 c3bc 5e1e 5d3c f7ef 3e3d 735a 9a3c
00000380: 8dd4 aabd da23 763c 2172 403b 8b30 103e
00000390: d093 a63d 4098 1d3d a3f8 ddbd 8ad6 183d
000003a0: 246c b93d f101 863d 0cb2 fb3c 51d8 963d
000003b0: b9a3 42bd c2a4 febc 052a 35bd 40e4 893d
000003c0: 2d19 923d aac5 db3c b80f 08bd 0da3 673d
000003d0: 486e 44bd c78d ad3c 335c cebd 7e98 0c3d
000003e0: b7c3 7e3d 1d55 24bd 7d37 0c3d 46ed 69bd
000003f0: 714b 48bc f752 ccbc 5aa4 533d 0cbe b0bd
-0.03637042 0.11362335 0.123537116 0.045675077 -0.018019138 -0.03138457 0.04581165 0.028833251
-0.093284205 0.024205018 -0.08632294 0.12618332 0.02038411 -0.0042855376 -0.11030685 -0.058539554
-0.08474779 -0.05871099 0.09884427 -0.061863124 -0.023599643 -0.011058897 0.049510043 -0.053931594
0.02866626 -0.024115916 0.041764937 -0.09637168 -0.06840974 0.11488013 0.042210802 0.092822514
-0.05980292 -0.0103304675 -0.09482812 0.034200765 0.0059542214 -0.07903809 -0.12649412 0.0668102
0.0037516674 -0.11228916 -0.024517115 -0.005349514 -0.06792941 0.07448917 -0.08083894 0.034713086
-0.032561455 0.06812796 -0.0017570084 -0.023098502 -0.028445078 0.032457784 0.035482068 -0.050501034
0.025806136 0.09583269 -0.036046136 0.10738416 0.0059639965 -0.019391993 -0.08883446 -0.07234258
0.022933276 0.04469182 0.12194232 0.09683473 -0.013273071 0.0018511345 0.0042153336 -0.09040428
-0.025246361 0.048103422 -0.042126004 0.08518674 -0.009841007 0.073265575 -0.017725902 0.115746744
-0.017661773 0.07647216 0.09717086 -0.0272425 -0.05132741 -0.0057577766 0.030396627 -0.078024775
-0.10182137 0.027329484 -0.028040374 0.03843309 0.09691422 0.10258648 -0.06062317 0.015944768
0.10145935 -0.039985668 0.10885549 -0.07118014 7.393935e-05 -0.10801586 -0.12755834 -0.09442229
0.08304834 0.038003966 -0.062798925 0.042501565 -0.08151777 -0.05953361 -0.041655578 -0.007996314
0.13189934 -0.054585326 -0.0011579605 -0.07570995 0.11855799 -0.050757002 0.11507869 -0.010603071
-0.10317305 0.04348277 -0.08125055 0.09383414 0.06061695 -0.020481788 0.10455616 0.106690146
0.08446929 -0.030554626 0.060733285 -0.010587309 0.1268008 0.10257532 -0.105984 0.04707731
-0.028821168 0.05518869 -0.09666028 -0.07513654 0.012112398 -0.0032108796 0.0066166264 -0.007941554
0.023664732 -0.006365834 -0.070168905 0.019839065 -0.114554405 0.0604355 -0.058184892 -0.008769908
-0.09063702 -0.06734231 0.11341109 -0.056415368 0.11539884 -0.059497938 -0.113363795 0.12332214
0.08551692 -0.07052052 -0.025160404 -0.08249715 -0.08324813 -0.049626924 -0.041559055 -0.03451313
-0.06675703 0.09179837 0.03245982 0.119473524 0.056467112 -0.08859302 -0.10755022 0.019024424
-0.082101375 0.007806699 0.08082787 0.017069584 -0.09071662 -0.05937674 0.10946035 0.11716389
0.06882622 -0.003573355 -0.037172206 0.05395542 -0.07715135 0.02767413 -0.008894983 -0.07169536
0.03864141 0.07548577 0.14131643 0.08967226 -0.12311286 0.079864085 0.08931924 -0.08533075
-0.08451869 0.085580364 -0.047987178 0.095099434 0.034661878 -0.09815594 -0.060279068 -0.046487026
-0.031783577 0.118567936 0.12392505 -0.008766103 -0.031021653 -0.0451569 -0.0418925 -0.03880609
0.11418111 0.11688499 0.11068267 -0.050399315 -0.02382101 0.01349601 0.046615567 0.018841958
-0.08341322 0.015023196 0.00293649 0.14081018 0.08133662 0.038475275 -0.10838439 0.037313975
0.09053829 0.06543339 0.030724548 0.07365478 -0.04751942 -0.031084422 -0.044229526 0.06732988
0.07133708 0.026827652 -0.033218116 0.05655198 -0.047956735 0.021185769 -0.10076179 0.034325115
0.062198367 -0.040120233 0.034232605 -0.057111047 -0.012225018 -0.024941904 0.05167041 -0.086299986

lstm.weight_ih_l1 f4 [256, 64]
00000000: 626f 90bd d06b 2abd 14f4 a0bd e06b 37be
00000010: 4158 f3bc 1b2a a6bd 0f2a 0ebe df6a b6bd
00000020: 3a19 12bb 7b8e 4d3d c6e1 e6bb 52ac 11bd
00000030: c57b b83d 9813 cfbd bba6 adbd 02d6 fe3d
00000040: 04a5 b73d 2434 16be 5b54 c9bd 129e 013e
00000050: b8aa 8b3d 1708 013e 4c0c 933c 93b3 dfbd
00000060: 0f73 85bd 084b bd3d 6413 14bc e8fc bc3d
00000070: efdf 9cbc 409e ee3d 24c8 dbbd a7ad 89bb
00000080: b92f 5a3d 9fba cbbd bdb0 303d eea3 883d
00000090: f75c 05be 0adf 58bd ec40 b6bd 1243 323d
000000a0: 34b6 40bd 77c6 d23c e74b d7bd 30f0 c63d
000000b0: 3022 cabd ea2d d43a e13c 4b3d bdfe 95bd
000000c0: 6d38 d33b 4c7d 6cbc 792a f2bb 0a13 3f3c
000000d0: 1ff2 0b3d dd32 8c3d 74fe e03d ab2b d7bd
000000e0: 2625 f1bc 24b6 823d 1a88 dcbd b44c da3d
000000f0: 27d4 213e f9ec df3d 67e7 a1bc 5b3e babd
00000100: 602c d7bc 544b 69bd 3743 b6bd bf3e b8bd
00000110: 095d 05be 67f5 e33d f1b4 df3d 51a5 bb3d
00000120: b690 3f3d 7d71 143d 6c50 10bd b264 b4bd
00000130: 348d 3e3d 50c2 de3d 02f1 cabc b23b e73c
00000140: 9257 f6bd 469f d0bd 164b b5bd 7951 753d
00000150: 743c 0f3d cfda 4abd 8154 4e3d ebcd b3bd
00000160: d20e f23d bcea b5bd 69e2 96bd 9013 e8bc
00000170: cbd7 013c 83b3 eabd d79e 9f3d 3d26 a33d
00000180: 74d7 093d 064d acbd b971 583d 4c3f f73d
00000190: 0935 ee3d 5ae4 3e3d f09d 2a3c 7f25 f3bd
000001a0: a3d4 c1bd b782 27bd 1934 7bbd 6e6a 973d
000001b0: b111 8fbd 1d5d 003e cc5b 3c3a 95b0 983d
000001c0: 22be e53d 57c8 383d 7e3d 3dbd 95cd 00be
000001d0: 54f4 b43d 5d2c b33c 04d7 7abd 536a 8c3d
000001e0: f1b9 423d 9e7a 6c3c dc24 423d df51 9dbd
000001f0: 7be4 f93d 3001 e53d c6c6 f73d 9a02 babd
00000200: 226f 9b3b 55c2 b8bd f912 f9bd 8a65 f23c
00000210: a5c0 eabd 6bdb 1e3d 27f8 9dbd a429 e83a
00000220: 442a 3d3d 0e4b 223d 2981 a3bc 7111 d5bc
00000230: e5f5 1cbb 4ac3 03be 068c 1d3d 42c1 8a3d
00000240: 3e9f bf3b 25f2 2abc cbd0 893d b739 903d
00000250: 753b 173d d18d 1abd b6b4 d23c 27ae 093b
00000260: 0014 c03d eeb0 603d e53f d63d 0189 783d
00000270: b334 d8bd 7db0 253d 82ee d83d fdef 6f3d
00000280: b03d 4bbd 8b08 79bc 32cf 9ebd cab4 4bbd
00000290: c2a1 31bd ee57 443d ec5a e1bd 9d2f 1fbc
000002a0: 893f 81bd 39ed 02bd 29cf bdbd 8df4 ae3a
000002b0: 4074 843d 9dc2 aa3d 407c f8bd f599 f53d
000002c0: 5b78 023e 028d d33d 8c3f 943d 7ef9 bcbc
000002d0: deb7 053e a8c9 b33d a602 ba3c fc15 b1bd
000002e0: c3db f1bd dd7b 1c3e c9a2 fdbd 33ed cf3d
000002f0: 9c69 a4bd 1816 c8bd fd42 55bc 4415 953d
00000300: 9404 ff3d a859 60bb 4c6d 26bc 448e 11be
00000310: dcb7 5dbd c2bd 443d 356c a8bd 978f a4bd
00000320: 7893 78bc 2748 ae3d 2d4a 0d3d c7e9 24bd
00000330: eec2 84bc a8d7 ae3d 2cc7 973d e0f1 2dbd
00000340: 5632 f33d 14fe 093d 8a76 afbd 5931 d03d
00000350: e8ea a63c 5815 2bbd d318 aa3b dbd2 07be
00000360: d352 0ebe 3fa1 7fbd afcf 48bc 9d7a bb3d
00000370: 27eb 7fbd 060b ddb9 4404 d7bd 900b 55bc
00000380: fbe2 a7bc 3629 003e d015 f23d 47be 23bd
00000390: f3b2 f6bd f6e4 3fbd 3578 8fbd 1c0c c3bd
000003a0: f00e a8bd 5cd7 a8bd 4fdf e8bd c470 26bd
000003b0: 3a49 ee3c 9bac 4d3d 7bea a2bd dbb6 10bd
000003c0: b81a 64bd 7c40 91bb 2237 bcbd 3df9 e5bd
000003d0: f5ea 8ebd a177 1bbd 620b 7fbd 3d5d fc3d
000003e0: 8fba a03d 38d4 0c3e 97ec a7bd 396f 85bc
000003f0: 7642 0abd 8086 f63d 030f d53d 4752 e4bd
-0.070524946 -0.041606724 -0.07859054 -0.17912245 -0.029705169 -0.081135 -0.13883232 -0.08907103
-0.0022292868 0.050184708 -0.0070459573 -0.035564728 0.09007982 -0.10111159 -0.08479067 0.124431625
0.08967021 -0.14668328 -0.09830543 0.12657955 0.068196714 0.12600742 0.0179502 -0.10922923
-0.06516086 0.09242827 -0.009037826 0.092279255 -0.019149749 0.116512775 -0.10731533 -0.004201609
0.053268168 -0.099477045 0.0431373 0.06671892 -0.13023745 -0.05294708 -0.088991016 0.043520994
-0.047048762 0.025729401 -0.10512524 0.09713781 -0.09869802 0.0016188 0.049618606 -0.07323978
0.0064459355 -0.01443417 -0.007390317 0.011662254 0.03416645 0.06845639 0.10986033 -0.10506376
-0.029436659 0.06382397 -0.10768147 0.10659161 0.15803586 0.10933871 -0.019763662 -0.090939246
-0.026266277 -0.056956604 -0.08899539 -0.08996343 -0.13023771 0.11130791 0.10923184 0.09162391
0.046768866 0.036241043 -0.035232946 -0.088082686 0.04652138 0.10876906 -0.024773125 0.028226707
-0.120284215 -0.10186629 -0.08852212 0.05989215 0.034969762 -0.04952508 0.050373558 -0.0877951
0.11819233 -0.08882663 -0.07367403 -0.02832964 0.007924984 -0.114600204 0.07793968 0.07966278
0.033652738 -0.084131286 0.05284283 0.1207262 0.116312094 0.04660449 0.010413632 -0.11872386
-0.09464385 -0.040896144 -0.06132898 0.07393347 -0.06985796 0.1253552 0.00071853097 0.07455555
0.112179056 0.045112934 -0.04620122 -0.12578423 0.088356644 0.02187174 -0.06124021 0.06856217
0.04754061 0.014433531 0.047398433 -0.07681631 0.12201782 0.11181867 0.1209846 -0.090825275
0.0047434727 -0.09021441 -0.12161822 0.029589433 -0.11462525 0.038783472 -0.07713347 0.0017712605
0.046182886 0.03962236 -0.01995905 -0.026009293 -0.0023950275 -0.12867466 0.038463615 0.06775142
0.0058478406 -0.010433708 0.06729277 0.07042258 0.036921937 -0.037732903 0.025720935 0.0021008344
0.09378815 0.054856233 0.10461406 0.060677532 -0.105569266 0.040451515 0.10592367 0.05857848
-0.049619377 -0.015199791 -0.07754363 -0.04973296 -0.043367155 0.04793542 -0.1100367 -0.009715942
-0.063109465 -0.031964514 -0.09268028 0.0013348028 0.064674854 0.08337901 -0.12133074 0.119922556
0.12741224 0.103296295 0.07238683 -0.023068186 0.13058421 0.08778697 0.022706341 -0.08646771
-0.11809494 0.15281625 -0.123845644 0.10152664 -0.08027956 -0.09769839 -0.0130164595 0.07279447
0.12452045 -0.0034233127 -0.010157894 -0.14214426 -0.05413042 0.04803253 -0.08223764 -0.080352
-0.015171878 0.08509856 0.034494568 -0.04026201 -0.016206231 0.08537227 0.07411036 -0.042466998
0.11874835 0.033689573 -0.085675314 0.10165662 0.020375684 -0.0417684 0.0051909476 -0.13264029
-0.13898782 -0.062409636 -0.012256547 0.09154246 -0.062480118 -0.00042160618 -0.104988605 -0.013003245
-0.020493975 0.1251572 0.11820567 -0.039976384 -0.120458506 -0.046849214 -0.070053495 -0.09523794
-0.08205974 -0.082442015 -0.11370718 -0.040634885 0.029087652 0.050213438 -0.0795488 -0.035330635
-0.055689543 -0.004432736 -0.09190203 -0.11229179 -0.06978408 -0.037955884 -0.062266715 0.12322471
0.07848083 0.1375283 -0.08199423 -0.016288387 -0.03375479 0.120373726 0.10403254 -0.11148506

lstm.weight_hh_l1 f4 [256, 64]
00000000: 1299 013e 2513 463d ca08 ddbc 3fac 8abd
00000010: 1327 643d aede d53d dcb0 4a3d 8d29 35bd
00000020: 7f6e bbbc d404 f6bd 46d5 b83d ce98 5fbd
00000030: 4f1d 2abb cfcb e13b 7c0e ae3d 09ce 0ebd
00000040: 16e5 bfbc 0bee dbbc 034f 2f3d 3524 ac3c
00000050: 049c 243c 926a e3bc a7dd d23d 8baf 8dbc
00000060: 0b39 e6bd f774 ad3d 4ac2 603c 8393 debd
00000070: ee7a fdbd 3e84 a43c 92be e4bc 583e dcbd
00000080: e16b 15bb c22d e7bd b8a1 4c3d 2eff d63d
00000090: 27c6 c4bd ddfb da3d 5fcc fc3d 1c26 d8bd
000000a0: 3542 c73d 2661 c03b 2333 643c 144c 9b3d
000000b0: 7c54 1c3c e44b 2b3d 72b9 64bd dda0 bdbd
000000c0: 9e49 9e3d 9f27 143c bc5c e6bd be7a a1bd
000000d0: a571 f13d 6f59 473d 169c b5bd 2398 6cbd
000000e0: 4707 20bd 7141 09bd 45ec 3bbd c262 fc3c
000000f0: 55ee 553d 8995 cabd f3e1 61bd 7fbf b4bd
00000100: 880c 24bd e240 933d d4c2 9bbd 475e 8abd
00000110: a1a4 6b3d 0c57 183d 3c5b 593c 5fcb cabd
00000120: 027f ca3c 0f37 f63c d94b 9cbd fc48 44bd
00000130: 7e92 f13d d463 e03d 3d38 f8bd 5052 81bd
00000140: 56c7 993d efa8 713d c3f5 dd3d a105 ae3d
00000150: dd5d dcbd eb20 d8bd f8c1 ccbd fc56 e2bd
00000160: 1ef6 88bd f6f2 4c3d 334f 0cbd f1f8 e83d
00000170: 3ce4 a33d fc15 fdbb 9238 a4bb c010 853d
00000180: 6aa5 a33b 65b3 86bc cc92 e63c f83c 35bd
00000190: 92f4 86bd 9088 2a3d f838 8a3d 3fc1 023d
000001a0: 2895 d3bd f616 483d 00fe f3bd c0b2 40bd
000001b0: 9396 31bd d1b1 303d 29b9 ca3c efed 323d
000001c0: e8a9 f13d b0ce 23bd 1716 48bc e77e ba3d
000001d0: b659 d1bd 9ebc dcbd 4436 14bd d36f 52bd
000001e0: 89fe c23d 4eff acbd b54b 94bd 10d2 223d
000001f0: f651 5cbd 2c2c 733d a31b 473d d30d 913a
00000200: da99 8bbd f29a c93d fa93 06bc b975 f0bd
00000210: 3d34 7f3d fd43 7ebd 167c b73d 9959 093d
00000220: 5bb6 543d 9b91 92bd 0514 e4bd 5dfb e2bd
00000230: bfcc b13d 3305 e0bd 52de 963c 6c57 d1bd
00000240: 98bc ecbd a736 a53d 78b0 013e dd44 c7bd
00000250: cbb6 fb3c ce21 32bd 6047 f3bd 2b51 e9bd
00000260: c005 26bd 1683 00be 589d 553d 39ea 2c3d
00000270: 7d0b f83b 5553 d93d 4ff1 e93d 8008 033e
00000280: 0321 fcbc fcc6 3cbd f83e bd3d 807f cbbd
00000290: bd05 39bd a8bc 8f3d 5a5d ad3d f171 ca3d
000002a0: 7ecf 95bc 4f5c b03d aafe e7bd f99f 383d
000002b0: b495 c7bc 2016 13bd aebd 03be 80c9 cdbd
000002c0: 73ed a43d 92fe c7bd 6712 933d ebbc 6bbb
000002d0: e43d 59bd d62f 983c 6fbc 20bd 5d25 7a3d
000002e0: d4a1 6dbd 361c 8cbd 4371 86bc 0852 3ebd
000002f0: 90d8 c53d 9aee 98bd 6a19 dcbd 0787 87bd
00000300: 3919 9fbd 5f68 86bd 236d 903d c3d2 bd3a
00000310: 24dc 5ebd cc90 b73c 1b78 e5bd cef0 113d
00000320: b8be cd3b c696 1a3d 1771 d03d 902c 5bba
00000330: d02c cf3d f5e3 193d 0817 b6bd c103 0abe
00000340: 668d b73b 68d2 6f3d 1bec ab3d 95d7 dc3d
00000350: 8f22 35bd 7590 bc3c 1e42 82bd 3e53 ccbd
00000360: ec4d 3cbd ed88 85bd 6d4a 0abd 16f1 1f3d
00000370: 63c6 ad3d c858 2b3d 13dc 92bd f9c9 bf3d
00000380: 15a4 ef3a ab23 c9bc faea e2ba b2bb fb3b
00000390: 9095 a03c 8e32 ba3d 4386 913c bf04 91bd
000003a0: 1a7a 8dbd 908a f83d ab9c 873b 902b 65bd
000003b0: 48e9 fd3d 51b0 c1bc 9fd3 93bd ff2d 863c
000003c0: 3e56 e03d 99bd e3bd c0b0 01bc fa00 8bbc
000003d0: 63b1 5a3d b725 dbbd 2ca2 7d3d 60a0 4abd
000003e0: 8cbd b33c 2c1e ed3d f2c3 73bc c9dc 883d
000003f0: c490 953d 3837 f9bd 257c 9cbd 936c 243d
0.12656048 0.0483581 -0.02698173 -0.067711346 0.055701327 0.104428634 0.049485072 -0.04422908
-0.022879837 -0.1201264 0.09025054 -0.054589085 -0.002595741 0.006890751 0.084988564 -0.03486446
-0.023424666 -0.026846906 0.04279996 0.021013359 0.010046963 -0.027760778 0.10296183 -0.01729562
-0.11241349 0.08469575 0.013718197 -0.108679794 -0.123769626 0.02008259 -0.027922902 -0.107540786
-0.0022799897 -0.112880245 0.049958915 0.104978904 -0.09608107 0.1069257 0.12343668 -0.10554144
0.09729425 0.005870956 0.013928208 0.0758287 0.009541627 0.04182042 -0.055840917 -0.09259198
0.07728885 0.0090426495 -0.112481564 -0.07884739 0.11789254 0.048669275 -0.08867662 -0.057762276
-0.03906944 -0.033509675 -0.04587962 0.03080881 0.052229244 -0.09891803 -0.055147123 -0.088255875
-0.040051013 0.0719011 -0.0760552 -0.06756263 0.05753005 0.03719239 0.013266381 -0.09902071
0.024718765 0.03005555 -0.07631654 -0.047921166 0.11795519 0.10956541 -0.121201016 -0.06314528
0.075087234 0.058999 0.10837891 0.084971674 -0.107600905 -0.105531536 -0.09997934 -0.11051747
-0.06687568 0.050036393 -0.034255218 0.11375607 0.080025166 -0.007723568 -0.0050116265 0.064973354
0.004994084 -0.016442964 0.02814617 -0.044247597 -0.06589617 0.041634142 0.06749147 0.031922575
-0.10331184 0.048850022 -0.11913681 -0.04704547 -0.04335649 0.04313833 0.024746494 0.043683942
0.11799985 -0.039992034 -0.012212298 0.09106236 -0.10222189 -0.107781634 -0.036184564 -0.051376175
0.09521205 -0.08447133 -0.072410025 0.039751112 -0.0537891 0.059368297 0.04861034 0.0011066742
-0.06816454 0.098440066 -0.008213991 -0.11741204 0.062305678 -0.062076557 0.089592144 0.033532713
0.05193172 -0.07156678 -0.11136631 -0.110831 0.0868163 -0.10938492 0.018416557 -0.102217525
-0.11559409 0.08067065 0.12664974 -0.097299315 0.03072681 -0.04348927 -0.11878848 -0.11392435
-0.040532827 -0.12550005 0.052152008 0.04221556 0.007569729 0.106115974 0.11422979 0.12796211
-0.03077746 -0.046088204 0.09240526 -0.09936428 -0.045171488 0.07018405 0.08465071 0.09885014
-0.018287417 0.086113565 -0.1132787 0.045074437 -0.024363376 -0.035909772 -0.12865326 -0.10048199
0.08053102 -0.09765352 0.07181244 -0.0035970758 -0.05303754 0.018577497 -0.039242204 0.06107079
-0.05801566 -0.06841318 -0.01641143 -0.04646495 0.09660447 -0.07467385 -0.10747035 -0.06617551
-0.07768483 -0.06562876 0.07052066 0.0014482368 -0.05440916 0.022407912 -0.11204549 0.03563004
0.006278839 0.037741445 0.1017782 -0.00083608273 0.10115969 0.037570912 -0.088911116 -0.13477995
0.005601573 0.05855027 0.08394643 0.107833065 -0.04422241 0.023018101 -0.06360267 -0.09976815
-0.04597275 -0.06520257 -0.033762384 0.039048277 0.08485105 0.041832715 -0.07170882 0.09364695
0.0018283153 -0.02455314 -0.001731246 0.007682287 0.019602567 0.09091674 0.017764216 -0.07080983
-0.06908055 0.12135804 0.0041385493 -0.055949748 0.123980105 -0.023643645 -0.07218098 0.016379355
0.109539494 -0.11120147 -0.007915676 -0.01696824 0.053391825 -0.10700553 0.061922237 -0.04946935
0.021940969 0.115780205 -0.01487826 0.066827364 0.073030025 -0.12168735 -0.07640866 0.040142607

lstm.bias_ih_l1 f4 [256]
00000000: 6d6c 9cbd da96 ec3d 4ab8 b8bd e4e4 b43c
00000010: a410 763c dab2 913d 9a10 e5bd f2fb 413d
00000020: b1bb e9bd c608 e43d 8370 ce3d adaf cabd
00000030: d496 283d ef60 d9bd a888 64bd 1d07 bdbc
00000040: 8573 9c3d 8b5b 663c 9f5e afbd ec58 023e
00000050: 2d76 0e3d 3a66 ae3d 25fd ad3c d2ec aebd
00000060: 2c95 e83c c512 09bd b943 20bd 039c 8f3d
00000070: a4db 0f3d f743 a7bd fd06 f8bc d7b3 ae3b
00000080: f98b c73d 1427 063d 4e57 c3bd 7091 c6bd
00000090: dfd2 cd3d 04a6 913d 08fc 153c bd9c e53d
000000a0: ac49 213d 48f6 903c 333f 8d3d 7b2d d8bd
000000b0: 490b 303d 156a 58bc 4061 d2bd a190 ccbd
000000c0: ea03 043d 9580 a53d a5dc 173c 1ad8 0fbd
000000d0: 5005 09be 57fd e3bd 846b e53d 3cca bebd
000000e0: d995 9e3d 9f53 c33d 2273 043e a580 ed3d
000000f0: e9eb b8bd d188 9d3d 4f70 403d 8351 e5bd
00000100: b0fc 8ebd 31b1 dabd 5c4f 96bc 8c12 1a3d
00000110: 8b61 d4bd 886e dcbd c7ad a63d 41c1 813b
00000120: 72c2 f1bd 16ac d3bd e0d6 c5bc 4f31 11be
00000130: 57fb bd3d d4e8 30bd 091c 10be 8010 8fbd
00000140: b00f d4bc c000 cfbd e02a 203d 71fe d63d
00000150: 2462 9abc fe22 7b3d b86e 033e f1bb aebd
00000160: 2cb2 0c3c 913b 883d 000b c0bd 4d3d 883d
00000170: f517 cb3d 8803 3abd 6ae8 97bd 9e93 57bc
00000180: 6787 a3bd 7089 973d 2785 8fbc 2d00 e2bd
00000190: a2de fabc 4b24 ab3d 1d74 683d 623e 533c
000001a0: 2e6b f83d 7464 83bd 199d dcbd 2795 d73d
000001b0: 1f2a 393d 58d3 bc3d c9c3 a93c 531e c13c
000001c0: 2e8e 05bc 4694 4a3d 549d cb3d 54df 063e
000001d0: 61e6 833d 2911 82bd 0453 4abd a38b bcbd
000001e0: 7654 91bd cf7f a13d 5e59 81bd b00e 97bd
000001f0: bcfc 64bc e94e d6bd c3f2 ba3d 4245 85bd
00000200: c22e cb3d 3c82 7bbd 7548 dfbd 5f18 08be
00000210: a678 7c3c 7900 a6bd 905f 09be 983a 71bc
00000220: 8e48 88bc 11c2 bebd 2b1a c6bc c881 d3bd
00000230: 4009 86bd 3e78 55bd ba20 763d 4175 b9bd
00000240: a2af a73d 8900 acbc 747f cbbc cdfe eebc
00000250: 6271 b83c 2f58 033e 6cfc b13c 0518 86bd
00000260: 8661 3cbd 9c48 6b3c 0280 da3d 6108 0c3c
00000270: 5e27 99bd 5e70 19bd 986a e73d 7cf5 fb3d
00000280: 9b71 c3bc d384 433d 21fd acbd 3e56 43bd
00000290: f7ca 9d3d a5da a4bd 7089 a4bd bb26 c53c
000002a0: 5e06 9abd 1443 d03d 2d5f 9f3d dab9 df3c
000002b0: 1fad c63c 2bf8 b93d e4a9 0abe 4662 a6bc
000002c0: 2bfc e5bd 653e 6bbd a5d5 1dbc f232 fdbc
000002d0: 214c d8bd 2763 95bc f49d 91bd 5103 053e
000002e0: a606 6f3d 213e df3d 014f 8b3d 9030 19bd
000002f0: 2f7e 7f3d 44bd b73c db1a fc3d 5da7 babd
00000300: 157e babd 3a68 a1bd 77c6 77bc 1440 4c3d
00000310: dbeb 073d 3f8e e6bd 5b43 a439 f639 d23d
00000320: 0c5d e4bd 8352 16bd 628f 03be f23e 08be
00000330: a9d8 64bd 232b 0e3d 972c c73d b30f 3bbb
00000340: a52a d3bd a3cd ef3d 0f4c fcbc da32 b53d
00000350: 959e dfbd 03c8 f93d 12e7 2dbd 00c4 143d
00000360: 9a83 c8bd 0728 9cbd 7223 a0bd cca8 abbd
00000370: bd85 36bd 83d7 f53b a6c4 353d c9f0 0d3e
00000380: 6512 963d 0392 95bd 4bd4 aebd 3c2c 69bd
00000390: 6a4a eabd 0d5c de3c 68fb b8bd 0aa3 b93d
000003a0: cbed db3d f5f8 a1bd f427 933b 2093 d1bc
000003b0: cb60 933d 311c 083e 7076 d0bd 6cf5 d43b
000003c0: aea8 463d 2514 9fbd e9d5 853d deb7 cbbd
000003d0: 81f5 6cbd 20f2 a4bb 7983 37bd 37b9 063b
000003e0: 3ff1 e6bd ed6b e3bc 6ece 983c feb4 b03d
000003f0: 5711 593c dd9a a13d aec7 27bd 2553 8d3c
-0.07637868 0.1155221 -0.09019525 0.0220818 0.015018616 0.07114191 -0.11184807 0.047359414
-0.114127524 0.11134486 0.10080054 -0.09896789 0.041159466 -0.10614192 -0.055794388 -0.023074681
0.07639221 0.0140599115 -0.085629694 0.12729234 0.03478067 0.08515592 0.021238873 -0.08541264
0.028391443 -0.033465166 -0.039127085 0.07012179 0.035121575 -0.0816726 -0.03027677 0.005331497
0.097434945 0.03275211 -0.095381364 -0.09695709 0.10049986 0.07111743 0.009154327 0.11211536
0.0393769 0.017695561 0.0689682 -0.1055555 0.042979512 -0.013208886 -0.10272455 -0.09988523
0.032230295 0.08081166 0.009268914 -0.0351182 -0.13380933 -0.11132305 0.112021476 -0.09315917
0.07743425 0.09537434 0.12934545 0.115968026 -0.09029371 0.07692111 0.046982106 -0.11197188
-0.0698179 -0.10678328 -0.018348388 0.037615344 -0.10370167 -0.1076327 0.08138614 0.0039598052
-0.118046656 -0.10335557 -0.024150312 -0.14178966 0.09276455 -0.043190792 -0.14073195 -0.06985569
-0.025886387 -0.10107565 0.03910339 0.104977496 -0.018845625 0.061312668 0.12835205 -0.08531941
0.008587401 0.066519864 -0.09377098 0.06652317 0.09916679 -0.045413524 -0.07417376 -0.013157753
-0.0798481 0.07399261 -0.017519547 -0.1103519 -0.030623738 0.08356532 0.05675136 0.012893291
0.12129818 -0.06415644 -0.107721515 0.105264954 0.045206185 0.09219998 0.02072324 0.02357403
-0.008151574 0.04945781 0.09942117 0.1317113 0.06440426 -0.06350929 -0.049395576 -0.09206321
-0.07096188 0.07885706 -0.063158736 -0.07375848 -0.013976272 -0.1046427 0.091283344 -0.065073505
0.09921028 -0.061403498 -0.10902492 -0.13290547 0.015409624 -0.08105559 -0.1341536 -0.0147234425
-0.01663616 -0.09314359 -0.0241824 -0.10327488 -0.06544733 -0.052116625 0.060089804 -0.090555675
0.08187796 -0.020996349 -0.024841048 -0.029174233 0.022515003 0.12826608 0.02172681 -0.0654755
-0.045991443 0.014360573 0.10668947 0.00854692 -0.07478212 -0.037460677 0.11299628 0.12302682
-0.023857882 0.047734093 -0.08446718 -0.04768967 0.07704728 -0.08049516 -0.080340266 0.02406632
-0.07520746 0.10169044 0.07781825 0.0273103 0.024252472 0.090805374 -0.1354137 -0.020310532
-0.11229738 -0.05743255 -0.009633456 -0.030908082 -0.105613954 -0.018235756 -0.07110205 0.12989546
0.05835595 0.10900522 0.06802178 -0.03739983 0.062376197 0.022429116 0.1230981 -0.09113953
-0.091060795 -0.07881208 -0.015123001 0.049865797 0.033183914 -0.112576 0.000313307 0.102649614
-0.1115056 -0.036699783 -0.12847665 -0.13305262 -0.055870686 0.034709107 0.09725302 -0.0028543293
-0.10310868 0.11709144 -0.030797986 0.0884759 -0.10918919 0.12196352 -0.042456694 0.036319733
-0.09790726 -0.07624822 -0.07819261 -0.08381805 -0.044561137 0.0075024976 0.04437699 0.13861383
0.07327727 -0.0730324 -0.085365854 -0.05692695 -0.114399746 0.027143503 -0.09032327 0.090643
0.10738715 -0.07908813 0.004490847 -0.02558285 0.07196196 0.13292004 -0.1017884 0.006498983
0.04850071 -0.07767514 0.06534941 -0.09947179 -0.05785132 -0.0050337464 -0.044803116 0.0020557174
-0.11276483 -0.027761424 0.01865312 0.086282715 0.013248763 0.07890866 -0.040961914 0.01725156
